best-CNN-Generalizing.pt (torch, 428626 bytes, 12 tensors)

conv1.weight f8 [16, 5, 3, 3]
00000000: fac7 2fbc 21f7 bb3f 4df6 c6eb 8081 bd3f
00000010: 6ac4 12f0 7287 b63f d36d ae53 f27e 963f
00000020: cf9b 6f55 e293 f5bf 5b02 07a4 78d5 f4bf
00000030: 29cd 2bcd 26e5 bf3f ad7f 79b4 8c7b d6bf
00000040: 8d01 6418 c601 f0bf 299b 2236 cc8c d6bf
00000050: a3a8 f32a e691 c03f b02c ff39 bf3b c83f
00000060: 029e b2b7 9bf6 f63f a4eb ed90 c204 e13f
00000070: db16 0f74 3619 f03f 2fcc 3899 c1f7 cebf
00000080: 0cd8 a118 2695 f43f f044 0acb f55d c8bf
00000090: 4828 29ab 9685 c83f 4bc4 a238 f972 c0bf
000000a0: fd7a 6f2b 1d08 b73f a25a 0b97 d824 ba3f
000000b0: 69ca 56d0 2236 f1bf ae59 8b6c 11fd b83f
000000c0: f70e cc41 884e c53f 7ce5 e16e 52cb dcbf
000000d0: 7012 ce8c 03ce b8bf 76eb e988 6252 62bf
000000e0: ca75 72a8 0299 a43f 13ca ab08 a491 933f
000000f0: 9fac c214 e7c2 b3bf 38ee 3251 41c3 6abf
00000100: 954c 46f5 8a72 a33f 2d96 5f8e 56bd a6bf
00000110: 869f 5fb7 0a53 a13f ff72 46d9 2c74 86bf
00000120: 761f 3cf4 5f0a 8c3f a119 fff7 20ba 803f
00000130: 963e 1387 bc67 7a3f 2501 7c72 8c1a 533f
00000140: 71cc 7ab0 ccdf 923f a788 08ab e081 793f
00000150: 0071 5382 2c8e 943f d846 0bfe 18ae 7abf
00000160: ce1c a9b8 0ef5 893f 5277 f710 e37c c23f
00000170: 8254 9597 17b4 bcbf 1c69 52b4 6701 c23f
00000180: efca 89c4 9f49 d33f 1627 f0d8 4c28 ba3f
00000190: 80fc 3cb5 ac85 d73f 179f e0d4 9792 88bf
000001a0: 4892 9974 175b f43f 0ff0 3ade 147c c13f
000001b0: fad0 e80f e006 c1bf 253d 4475 cc30 ac3f
000001c0: 726f 13c1 8022 eebf 7348 b01d 749f 99bf
000001d0: e1f8 2301 49ca b2bf f03e 2589 758b efbf
000001e0: 1928 a542 b83c eabf a79d 9741 1ab5 e3bf
000001f0: 04d4 51b6 b6de b53f 8a49 3260 a406 d8bf
00000200: 4b8a ddd3 1781 abbf 1e17 0ef0 868a bd3f
00000210: 5f0e ff02 dc53 cdbf 926b 88cc fd26 c73f
00000220: 2aaf 0eeb 5eb6 ce3f 569a 7088 7d91 c3bf
00000230: 04e7 18a4 9391 c8bf 0182 5bbd 4cc8 ce3f
00000240: c979 0f56 02f1 9bbf 3089 2bb9 3728 a6bf
00000250: b5a8 410a 78d4 a13f 0be1 679e fa4f a93f
00000260: 0cb5 0df6 22a9 b43f dc13 cff2 c693 b13f
00000270: 9e0e 623d 4626 9e3f 09c2 f1bc 4027 a93f
00000280: 330d 31be e01d b73f b07d a307 6fa5 47bf
00000290: ddd1 a87e f140 6abf 9d96 0a73 99e7 92bf
000002a0: 0dbf 8654 8d6a 90bf 5eab 620f 4e90 9bbf
000002b0: 83a2 e574 ef72 97bf e87b 5088 6b88 93bf
000002c0: 8039 638b 8b6d c2bf d7c6 987f 6ca9 a6bf
000002d0: 1d60 34b3 ca87 d63f 9389 1beb 2b28 d9bf
000002e0: 7212 4a5e b909 d83f 5733 64b5 e96c f3bf
000002f0: ca1e 1aa3 3bad f6bf e9c3 dd23 c1d5 c83f
00000300: 1f7a c798 3469 e53f 5976 71c5 028a dc3f
00000310: a8ac 4f8d bab0 f1bf 6c9e 440d 05c5 d5bf
00000320: bee6 75a6 f67a d83f 3243 ed90 be4f 77bf
00000330: a2b8 f4dc a3a4 c3bf b9ec 01c6 61ac e53f
00000340: a74b 8d81 74d4 fb3f 6270 6d2c d803 d0bf
00000350: e33d 9cfb f687 e5bf df7b a37d 651b 933f
00000360: 9507 c9e7 c80d bd3f 7338 afa0 2766 f1bf
00000370: 0546 4ca7 51cc acbf 788c 0550 62e9 f0bf
00000380: 2bd2 a354 1828 bbbf 3f5b 25ac c94c e8bf
00000390: 2d9e cfd5 abaa c03f 9198 87c9 6d61 e1bf
000003a0: 8dca 2353 16f3 bf3f e1af 2b24 7e66 b2bf
000003b0: 958d 1ca3 6d73 843f a734 be51 da6e b03f
000003c0: 48a6 e574 ac92 9a3f 0848 9d74 3aaf b53f
000003d0: 3d43 7e0a f394 843f 3193 06ab 9392 a03f
000003e0: fea5 9817 3944 b83f 381c 6bde 22de b13f
000003f0: 4ac2 e1f7 21b7 73bf ec27 3fdc 0f63 88bf
00000400: 069a ae0d c10e a1bf 5ef4 2dab c04c 98bf
00000410: 8716 974f a8f5 9cbf 4a1f 0f07 77fc a1bf
00000420: 22d7 aef9 e05e a6bf 481f f51b a700 a3bf
00000430: 74c8 be2d a828 a4bf 3cfd 2af7 6a08 ee3f
00000440: 92e7 4289 2f53 f1bf b0cf b03a 8c19 b13f
00000450: 73dd e4fb 5cbf e3bf 479a d5f1 4c4c c23f
00000460: 7ac4 9362 6e4f f2bf 9e99 63bc cb30 bf3f
00000470: ff14 2b73 e77c f3bf 2b40 1e35 b0b4 cb3f
00000480: 39fd 9dc0 a389 aabf 2867 ea56 765b b13f
00000490: bc7f dd1a f333 f63f 8760 d721 573e c13f
000004a0: 51dd b711 c138 ecbf c07d ad3d 54bf e53f
000004b0: 1cdf 9988 5d31 e7bf dd88 59b8 9da2 e83f
000004c0: abd1 1de9 0c63 c7bf 91f5 9765 5c68 c73f
000004d0: cc0e 1583 1c44 c63f fe36 12dc 6ac8 ce3f
000004e0: 54a1 8be6 a9c8 d33f cfcf 4f0f 82c8 a2bf
000004f0: d613 eeb9 ab73 9d3f cb63 7c84 d351 58bf
00000500: ff11 d914 f1b3 fbbf 1d3b 47dd 4c5d cabf
00000510: 09b7 0517 2a61 a63f cbff ebad 079e 903f
00000520: 65b2 d858 f104 b03f 9e00 110d 378a 9d3f
00000530: fd87 9049 0538 a13f e455 3598 765c b23f
00000540: 90ba 7aaa 135b a23f 24fe a0f1 24a7 883f
00000550: e0c9 9db5 0ce1 a83f 1008 14e8 ce31 9cbf
00000560: 7144 ddf5 dd90 84bf d181 b362 5ec3 9fbf
00000570: fbc5 9d0f 7c52 67bf 6b3e 2c8f e177 7abf
00000580: 76fa 52c4 e942 94bf daa0 25d4 eea8 81bf
00000590: 6cc6 da0c b6d3 5bbf ac37 da84 a91e 91bf
000005a0: 426f aaad 5baa 92bf 173f da1b 1597 d0bf
000005b0: 3201 38be 290f d9bf b267 0ce4 33ab b6bf
000005c0: 8e06 77f2 54b1 fc3f 5635 9ac8 1496 a73f
000005d0: 9e2a 8a2c c9ed fb3f 7c76 b827 97ff c0bf
000005e0: 5a0e beca 8595 c5bf ac88 cff9 a016 c83f
000005f0: e750 e064 cf96 fabf cfd1 2931 f1c2 f7bf
00000600: 9f8d 456f fc68 fabf eb54 d9bb 2c6a fbbf
00000610: e963 c2ba 03db 883f 66e6 7db3 fd45 fbbf
00000620: 0035 5209 a3a5 fbbf 4002 d13d 542f d1bf
00000630: 0d36 6554 6ce7 bc3f a4d2 545c 1a68 c4bf
00000640: 8b79 d3b9 c385 b03f 3339 933d a7e7 acbf
00000650: 4106 edaf ec5b a6bf ba89 a91c e146 b13f
00000660: c1e0 11f0 2351 c8bf 59be aad4 ba65 81bf
00000670: d2e6 2268 aa5a b23f 894c 07e3 0a2a ae3f
00000680: af9f 0487 aa37 983f 3c07 62a1 1261 8c3f
00000690: 3a7e 7f99 bfe5 a03f f56b ab32 4137 a63f
000006a0: 9ed3 312e 8bb8 9f3f c3f1 3723 5599 883f
000006b0: 1052 8c20 cc8d 8bbf ae9a be5e 3fef a23f
000006c0: d57d 668c 8501 7d3f 3c97 d7eb 3c65 913f
000006d0: e5c0 cf13 3444 7a3f d354 4639 1d9f 713f
000006e0: 7d5d 2fe9 b119 7bbf 10c4 079b 7b6c 693f
000006f0: a6a9 05c4 89cf 383f 18dc 0f06 e920 8b3f
00000700: 145c 0ba3 a566 603f aa76 2804 6cd3 963f
00000710: d725 5596 2066 eabf 112e 3b6d 3cc7 ebbf
00000720: 49b4 4e43 7ce8 d4bf fb7d 9212 bbe6 ecbf
00000730: 1c8e 219a 05f4 fcbf 2b5a 7c3c befd 05c0
00000740: 00e2 1168 a9e7 e3bf 4fcb 5261 3992 eebf
00000750: 8b56 fdfa fe18 b1bf 0be7 3f29 c96b 773f
00000760: d833 d411 07ba e93f 6b90 b7e2 cd58 e33f
00000770: 97e7 9d72 ef4e 0440 7ed2 27af 8ddb 733f
00000780: 7970 0b06 5135 d2bf fe65 7ebd e32d a5bf
00000790: bd1d d696 6fe2 e2bf 57aa bb17 27b1 bdbf
000007a0: 092e 8f26 ce4d d5bf 448d 36ec 115f c5bf
000007b0: 3c4d 177f 5695 aebf 3d16 b9d7 ae48 ccbf
000007c0: 9ff0 213e a238 ddbf c600 1cb9 115f c6bf
000007d0: 99a9 cf0e 5c57 e5bf 6be0 f9d7 228f cd3f
000007e0: ac8f a8e6 b97a 823f a2e6 989b b945 b13f
000007f0: a4ef 37d8 0df0 983f 321d 3955 b180 aebf
0.1092396816673328 0.11525731807975 0.08800428734936508 0.02196863780737408 -1.3486045205443025 -1.302117005092575 0.12459032544193306 -0.35129087089989747
-1.0004330590018953 -0.352343609682452 0.1294524869657084 0.1893233330905324 1.4352070975963902 0.5318310576106922 1.0061554463913385 -0.24193592053924948
1.2864132845111298 -0.190367435589486 0.19157679898700253 -0.12850871339245126 0.08996755896030702 0.10212472617727511 -1.0757167948001103 0.09761151218422157
0.16645911419629275 -0.44990979030952594 -0.09689352214452085 -0.002236549807375916 0.040229876577750526 0.01911026289867308 -0.07719272858473623 -0.003266933033584409
0.0379832672507742 -0.044413285140575055 0.03383668411680589 -0.010963774090492871 0.013691663399654646 0.008167512481929875 0.006446587024768432 0.0011659976534588803
0.01843185259958741 0.006227376565705856 0.020073600248779577 -0.006513688684849327 0.012674441347498091 0.14443624809694683 -0.11212298823132197 0.14066788010388442
0.30136865800083873 0.10217743202533955 0.36753385256810844 -0.011998354133609319 1.2722391657527101 0.1365991673573039 -0.1330223157580191 0.05505980426289118
-0.9417117854131745 -0.025022329628037143 -0.07339912679524076 -0.9857738188383944 -0.8199120809233619 -0.6158572465036983 0.08542959166682357 -0.3754054011743838
-0.053719277012323895 0.11539500580519443 -0.22912168642334316 0.18087742316205585 0.23994051434908076 -0.15287751352407736 -0.1919426490074373 0.24048766370744093
-0.027286564352715623 -0.04327558646561369 0.034824134113323 0.049438316189425256 0.08070581919828984 0.06866115024520475 0.029442880150340238 0.04912760073137085
0.09029965060567662 -0.0007216255319483691 -0.0032047955221747707 -0.018461606642310547 -0.01603146389396586 -0.02691766709237286 -0.022899381170108157 -0.01907508868691457
-0.14396805101428 -0.0442613511808198 0.3520380735440101 -0.3930768772098869 0.37559351165717836 -1.2140900693513765 -1.4172932025120866 0.19402326823504204
0.6690924629181757 0.44592351228297883 -1.1056466598481993 -0.34015013023097285 0.38250509506142893 -0.005691284560115405 -0.1534619168173253 0.6772927157720893
1.739368921339272 -0.25023464525816597 -0.6728472627891587 0.018659196656581997 0.11349158915348163 -1.0874401356445815 -0.05624632994853233 -1.056978523811976
-0.10608055178074298 -0.7593735086655683 0.1302084726332721 -0.5431431709410096 0.1248029664018679 -0.07187641509125299 0.009985786953228973 0.06419147964170922
0.025950140604811517 0.08470502230673571 0.010049723394134008 0.03236829245296347 0.09479100061493992 0.06979577951561644 -0.0048133208166381645 -0.011907695683380091
-0.03331568996445715 -0.023730287979095592 -0.028280858857917337 -0.03512927972002318 -0.04369261787307567 -0.0371143552425211 -0.03937268789685869 0.938527567624909
-1.0828090059062316 0.06679607804181731 -0.6171097678951994 0.14295350845641705 -1.1443923807785539 0.12183831548063614 -1.2179941653024 0.2164516696325348
-0.05183135725291738 0.0678018533893946 1.3876830148146686 0.134714976810532 -0.8819280000742912 0.6796055988924579 -0.7247760456075159 0.7698505974369955
-0.18271027929917003 0.18287234268784094 0.17395359421253997 0.24049125428830814 0.309122538702032 -0.03668600499068441 0.028761561606660845 -0.0014843526459513586
-1.7314310850498484 -0.20597229771234363 0.04371005564722281 0.01622783659968245 0.06257542056182215 0.028847561047087404 0.033630528669405614 0.0717233773805997
0.035851110992884405 0.012037552474907072 0.04859199254032709 -0.027533753313953524 -0.010041936937030567 -0.031018709921115054 -0.0028469489160947137 -0.006461983767408345
-0.01978650341765805 -0.00862299523278447 -0.0016984250864137363 -0.01671852944723866 -0.01822798964950257 -0.2592213413235966 -0.39155047966052614 -0.08854984586324013
1.7932939025198809 0.046066903579325455 1.7455531825859576 -0.1328000015209233 -0.16862556838542525 0.18819057653224058 -1.6618188801267537 -1.4850932999080333
-1.6506313654470899 -1.7134215677118003 0.012136487137739809 -1.7045876513861002 -1.7279386867624567 -0.26851373707544113 0.1129062372248983 -0.15942697056165855
0.06454108511704797 -0.05645487429284159 -0.0436700787308948 0.06748778295290139 -0.18997620794448802 -0.008494815459328441 0.07169594805136661 0.05891450902313362
0.023649849406097875 0.013857026624694783 0.033002841460753676 0.04339030974889361 0.03097741574716261 0.012011208665165257 -0.01345405077294351 0.03698156386899619
0.007081529306020203 0.016987754721319734 0.006412700106906953 0.004302133708184291 -0.0066163015025816315 0.0031034864589334424 0.0003785811750477659 0.01324636506795511
0.0020020709128902945 0.022290885690486796 -0.8249667106803668 -0.8680708058759042 -0.32668978283874545 -0.9031653750170671 -1.8095756550545792 -2.748898003144196
-0.6220290215124464 -0.955349626622004 -0.06678765895534348 0.005718026910466421 0.8039584491940515 0.6045903614108402 2.5385426477850603 0.004848054365073849
-0.2845041808157088 -0.04136573494106342 -0.5901411005042331 -0.11598438577099422 -0.3328738571696879 -0.16696380647509035 -0.05973310758022385 -0.22096810849522966
-0.4565816504252868 -0.17477628267807271 -0.6669140137940303 0.23093066735941944 0.009023144103657753 0.06747016953240828 0.024353233644418673 -0.05957559743233744

conv1.bias f8 [16]
00000000: e9b8 96f7 3970 cebf fd2a ab17 c960 d5bf
00000010: 316d d751 00b4 e1bf 6e59 8910 9c9d d2bf
00000020: 137a e891 fd65 ccbf 859f 4888 89fc d93f
00000030: be70 f8cb 6ef7 e6bf 33c5 d314 09ce ddbf
00000040: 574d f31a c5be d0bf 7f8b 3e37 d1a2 d2bf
00000050: d7ec b0f9 07ad a43f af60 44a6 d002 d0bf
00000060: 4ffb 72f6 fe1c b4bf da56 e9ef 2fd7 c6bf
00000070: a932 01f5 e10e d3bf 966f bef8 cb46 cebf
-0.23779987897200464 -0.3340323191775239 -0.5532228086916914 -0.290869728230425 -0.22186250328464094 0.40603864964440844 -0.7177041991995095 -0.4657004073515793
-0.26164367324709786 -0.2911875762458109 0.040382622938034345 -0.250171816225257 -0.07856744305443651 -0.1784419938509732 -0.29778336454618654 -0.2365355457849289

conv2.weight f8 [32, 16, 3, 3]
00000000: 3a3a 6fa5 6ad9 e1bf 64d7 387a 3700 ebbf
00000010: e380 55aa 2fe9 c33f fb1c b726 d02e ba3f
00000020: 3672 810b 620f d0bf e323 ee1d 4c5d db3f
00000030: 92c2 38f7 abd1 e53f 6954 e51f 898b c23f
00000040: ed0b 0e25 f70f e33f fa5c f9bd 0284 a8bf
00000050: eb6e 4445 e3fe c7bf 37a7 7ffa b1de ba3f
00000060: 9215 965a b714 c6bf 594d f108 4371 c3bf
00000070: ea9f fe8e bb9c d53f 73e8 0429 3ef3 e2bf
00000080: 4c1c 6703 d2f8 d33f 113f 3f1b 3778 d73f
00000090: 7b72 f002 cd8b b63f 6765 f806 12b4 c23f
000000a0: fba0 0d4c 67de a8bf ae3e b4dd 6cbc ccbf
000000b0: 8330 1ff9 0364 db3f 212c 9f66 6ea2 d9bf
000000c0: 711e 7f6f 69f1 df3f 353c b54f 205e e53f
000000d0: a236 040c 7581 e43f c214 a576 b153 bd3f
000000e0: 8061 8a9a 6f10 d83f cdec 0717 1680 c3bf
000000f0: 4e46 1700 3491 d2bf d8cc a921 e5dd d0bf
00000100: 7069 8d16 4e50 b03f 7ef7 47eb 8df2 733f
00000110: 8d7b 1a79 2441 a63f c640 d7e3 baa5 e6bf
00000120: 1ef9 2a37 6e26 c0bf a3cc 48cd a001 c8bf
00000130: 62c1 901b f93d 6d3f 7225 b9f6 78da e0bf
00000140: 95f7 b569 4fb7 d43f 3a15 ee60 62b2 c1bf
00000150: b983 3f38 717f aabf 1317 d3ac 9dbc b63f
00000160: e228 9c40 70f8 e33f 7d3d 00d1 95a9 c7bf
00000170: 0d4c efbb bc7f c1bf 8633 6eb7 de4e d6bf
00000180: 9580 6a91 2dc7 cebf 3453 e399 d852 cd3f
00000190: 2cda 7bdc ff06 cabf 1ca0 7c92 3824 d1bf
000001a0: b61f 142e 5845 723f 6552 1935 3075 bb3f
000001b0: bd61 d954 eb11 a83f 827c 64aa c3a0 e0bf
000001c0: f7b1 50f5 47e7 cc3f dd86 459c 5257 d13f
000001d0: 0531 57a6 5066 d4bf 6221 eb2e 5585 c03f
000001e0: 0657 6eea de8b d53f 4fa5 49c4 640d e33f
000001f0: 6dbd 2db3 e2e2 d9bf 0670 4190 b37d afbf
00000200: dc2f 3b68 e185 b83f 1b12 222f d20b d7bf
00000210: 5966 2cbe 5ce6 bb3f 1906 ea61 2f2d 843f
00000220: a7fc 0de8 f8a8 ce3f ad0f de64 b0fa a5bf
00000230: 5d1e dec4 d2ee da3f 30da 73cf 4e8f bd3f
00000240: 8000 4006 eec5 a6bf a264 889a 6a34 f2bf
00000250: c32c 84a4 5c25 e4bf 1277 806d 787b dd3f
00000260: b614 b8fe cb0f debf 1a26 856f 4ca7 aabf
00000270: b92d c33a 2706 d4bf 93ed 9506 073a adbf
00000280: 8f35 e43e d240 b93f 61d1 864d cd46 e0bf
00000290: 0216 35f3 f3bd e0bf 7ce2 fb94 a523 dc3f
000002a0: 7dc9 1243 29ee c7bf 4afa a2c5 44ce dcbf
000002b0: 5ff1 028d 4f3e d3bf 16ea beef 14d8 e8bf
000002c0: c4cf 2480 362c cd3f a9f0 e640 18f1 ce3f
000002d0: cf10 2c61 17f8 d3bf 96e6 7d3a 71a6 bd3f
000002e0: a56a 693b f05b b03f 4521 f021 e736 80bf
000002f0: 466f eb6c 7b7c b43f be3a 3775 3814 bb3f
00000300: f54d 15ba 6ac1 e1bf f183 e88e 4889 ce3f
00000310: 36b4 c140 85a6 983f e058 39e1 4d6a d6bf
00000320: 8122 7f6a 0ef4 c93f fd01 3b4d d5d5 e5bf
00000330: 14c7 8140 6ea0 aabf 8eda 5e56 3d46 ad3f
00000340: cc1d 2989 43d2 b5bf d896 4d17 9e61 d9bf
00000350: c7ae 8b35 ea31 d43f b1b4 3a06 1cb3 adbf
00000360: 873e 51b8 75f1 d7bf 78c4 7101 0fc1 933f
00000370: 1514 8ec8 c3ff cdbf 2e2d 0d64 547f d9bf
00000380: c96c 1fbf 2ac6 bfbf 14dc 2683 5d96 d43f
00000390: d60a 5c18 70d7 d8bf 945a 5619 bbcf d0bf
000003a0: c1fc 2aca d63b d8bf 4566 6b40 6bfd ddbf
000003b0: 4e50 738a e6ee c6bf 8c0a 63fa ec59 b93f
000003c0: 1ffc 74df 8730 e2bf afba 6420 410e d3bf
000003d0: 7de7 eaa3 1442 c7bf 4375 2747 29c2 ad3f
000003e0: cb9d a402 feb9 f2bf 9dfa 3270 f8ca e6bf
000003f0: f03f 2c78 bbd1 fbbf 5583 4a75 7d03 d43f
00000400: 76c5 0a56 b473 c9bf 81a3 5a5c be53 fabf
00000410: db71 55d3 7d88 d23f 5ba1 a596 83b0 d0bf
00000420: 921e 90e8 3118 e23f 8f26 3b26 ddaa e43f
00000430: 3382 cfa5 e08d dd3f a39a 7f73 0844 dcbf
00000440: cd55 cd9e f2d2 d4bf 69c1 8a26 3a60 d9bf
00000450: eeba 375f baf7 b5bf 9c43 867d 8c1e b9bf
00000460: 00ba 3623 e583 c23f cb1e e9cf 815d e83f
00000470: f6f0 bf12 234b e33f 345a 51b0 1d0d bbbf
00000480: fee0 bf2b 451f bbbf bac5 9563 6e31 b2bf
00000490: e029 66cf b3b2 82bf 88b7 3332 3d2c a7bf
000004a0: 727a 810f a981 b43f f93d 906f c33c a8bf
000004b0: 442c 5f74 7210 b6bf c6a3 8f77 cd4b a53f
000004c0: b177 9382 c65c 8e3f bea2 35ba 8243 b4bf
000004d0: ba88 7aab 36a9 b6bf 19f6 7aa4 961f a5bf
000004e0: 25a8 084e 97b7 bebf b983 db99 e475 b4bf
000004f0: 82ac baca 2d18 84bf 404d 886b 178e b6bf
00000500: 8bbf ceb5 5d46 b4bf 9275 8897 b232 693f
00000510: 79e8 be16 b720 a7bf 8112 842f 886b 70bf
00000520: 12f3 a5dd 45d7 babf b3c2 bbff 5518 903f
00000530: 6683 37b2 5eb0 b7bf 60db 760c 7b48 b5bf
00000540: 2418 589b c39e 313f 58fb c654 d5f4 c0bf
00000550: 85a2 01a2 ef0c b0bf 16ff 8104 51c5 c0bf
00000560: fa22 b7f7 0c0c bdbf ec89 eacb 8b9b a4bf
00000570: a89a d863 263d b7bf cf73 a973 61fe b7bf
00000580: 6b63 9dab 07b1 79bf 84f7 0588 3f8f 9cbf
00000590: 7eef 93a4 9b3b 95bf 7da6 b6dc f149 9ebf
000005a0: 0533 b293 4d81 b2bf 86e5 f952 8435 8c3f
000005b0: 26c5 efc8 ed71 a4bf 7719 70ab 681b 90bf
000005c0: 34fe 5a3c b4f2 b3bf 6e22 c525 6fbe 8abf
000005d0: 3eb2 b6f5 acac bdbf 698b 2730 9b8f b8bf
000005e0: d9ce 41c9 1469 b1bf a2d1 6560 540a b1bf
000005f0: aa8f f980 fc7f 93bf dad4 f776 178c a2bf
00000600: 3b1e 5ddd d97b bebf 2457 f6f8 199c 9abf
00000610: f571 0713 a7a8 c2bf 79bf 0d38 ad39 a03f
00000620: 76da 24a6 50f6 b8bf 0c6d 2554 b968 adbf
00000630: 125e 5edf fb46 a4bf f3d9 82f9 ac27 a5bf
00000640: 745f f669 e077 92bf f268 838d 1319 b2bf
00000650: 6b60 824e 2ba4 b9bf 1193 beda ae03 a7bf
00000660: 67f3 4df7 dae6 99bf d365 caf0 67ce bbbf
00000670: 809e 50bf d4c9 b63f 7da8 5600 47a7 c0bf
00000680: ef02 f6c7 f150 543f 9b0b 2e00 1129 a3bf
00000690: 8229 5da8 3bec b6bf 8cd0 610b d003 c1bf
000006a0: 5bf6 fb93 69c7 c1bf cef1 ac84 c89f 973f
000006b0: fd54 64b8 aed9 a9bf b6b4 1532 7a5c b4bf
000006c0: 4758 092a bdd7 bd3f 9c21 3eac 5e1c 8ebf
000006d0: 7df1 f9c3 3bf4 a2bf c2a7 8140 0d7f b7bf
000006e0: 19a8 5588 8e4e a1bf 3851 9033 0d6e c4bf
000006f0: 8c46 bfae cd80 a83f 3ecf 6562 2321 bcbf
00000700: 5845 06da 3a25 c4bf 2bb7 6c16 fd6e 9dbf
00000710: 1d15 8090 16ba 91bf ff53 87ff b404 b7bf
00000720: c5bb 8d43 6ef6 b0bf d606 1e9a 9d0e b6bf
00000730: 9b56 6d47 cfc9 b8bf 028f 43e8 0cc4 9b3f
00000740: 498a 7922 aa0d 713f 38b5 5fa0 ad76 babf
00000750: cf9c 8e57 2d20 b7bf c9cd 6cf3 e6ea bcbf
00000760: dbbf f67e f3f0 bebf c62c 5ad3 c143 a5bf
00000770: 6d3b 9891 a08c babf 12bb 57ff 16da b0bf
00000780: b371 1d7f f713 c0bf a31b 6bbd 8905 bbbf
00000790: d12a e025 ef10 adbf f467 69fa e3ad b0bf
000007a0: fb9b 67b8 200e a2bf bc48 1ee2 fc42 c2bf
000007b0: da10 47ee d599 a4bf 37a9 1953 2aa5 bebf
000007c0: c27a 5429 0844 b9bf 5af5 12df eeb1 883f
000007d0: 0aa9 db90 5e1b c4bf b79c e85b bc45 c0bf
000007e0: 12e4 d720 2602 67bf 5af7 90f5 cbbf b4bf
000007f0: 337d 6dd6 1ffc afbf 3764 35a3 5fd6 b9bf
-0.5577901106970053 -0.8437764536999848 0.15555377785768262 0.10227681107709323 -0.2509389030799726 0.4275694172179653 0.6818446949528882 0.1448832898846917
0.595698902485649 -0.04788216179866285 -0.18746605760758625 0.10496055951776105 -0.17250720904500533 -0.15189397751474124 0.3376912018234167 -0.5921927262454701
0.312061789820693 0.366712357147649 0.08807069131621319 0.14612031307550952 -0.048571804078905566 -0.22450028252977944 0.4279794628935251 -0.4005390169301695
0.49910961044631735 0.6677400166316888 0.6408028826424081 0.11455830713846907 0.3760031708893834 -0.15234638332899522 -0.2901124955070359 -0.26354339873723864
0.06372535753817998 0.004869989749293311 0.04346574762643405 -0.7077307176605465 -0.12617280668013903 -0.1875496866574383 0.0035695901283576007 -0.5266690081418075
0.3236883671123619 -0.13825635655317986 -0.05175355731603965 0.0888155505118358 0.6240769636072196 -0.18486283021091401 -0.13671073128225011 -0.34856384194500156
-0.24045343017951795 0.22909076227247172 -0.20333860650835456 -0.26783575349191024 0.004460663273910306 0.10725690170631592 0.047011713130533185 -0.5196245506266595
0.22580813864023216 0.27095475445649503 -0.3187448143405763 0.12906899252835574 0.33666203397420735 0.5953849633926128 -0.40447299478451876 -0.06150590072567756
0.09579285425860412 -0.3600964985164709 0.10898379938989801 0.0098518087154416 0.23953162508766931 -0.042928230584066675 0.42082661843639874 0.11546795429954027
-0.04447883440298117 -1.1377969776570258 -0.6295607770165578 0.4606610364297562 -0.469714163540924 -0.05205763684587002 -0.3128755639888499 -0.05708333926574052
0.09864534411845781 -0.5086428178970374 -0.5231876135009659 0.439675708286394 -0.1869556024081013 -0.4500896387143355 -0.3006781460824381 -0.7763771708044398
0.2279117704107404 0.24173262757347416 -0.312017292875919 0.115820957927918 0.06390286875231739 -0.007917218898015785 0.08002444657489347 0.10577729093277363
-0.5548604616582781 0.2385645578188185 0.02407272536986601 -0.3502382945492979 0.20276050758390698 -0.6823526867302118 -0.052005238890059285 0.05717651061370531
-0.08523962114951827 -0.39658310199443525 0.315546562472019 -0.058007121811308855 -0.37411253928892346 0.019291147673758918 -0.23436782162403405 -0.39839658518458776
-0.12411753812868932 0.3216775685099844 -0.3881492841611992 -0.2626788852152597 -0.37865228407822477 -0.4685924653145757 -0.1791656662013587 0.09902840722046785
-0.5684241642374025 -0.2977450195639148 -0.1817041206721192 0.05812195771771169 -1.1704082587474314 -0.7122766677274118 -1.7387041754009225 0.3127130170269557
-0.1988435192229578 -1.6454452140407911 0.2895807803922971 -0.260773560634808 0.5654534857030333 0.645857405347856 0.4617845172161054 -0.4416524055399497
-0.3253752280046143 -0.3964982391726353 -0.08581127953196319 -0.0981223875480865 0.14465011805937422 0.7614144383196274 0.6029219976622062 -0.1056688838446938
-0.1059458953676575 -0.07106676036143869 -0.009129910246675033 -0.04525939214532487 0.08010346058424903 -0.04733858811243503 -0.08618846264941832 0.041593952984676316
0.014825392589440019 -0.07915513082628942 -0.08851949392786454 -0.04125662572685602 -0.11998887686846212 -0.07992390400205708 -0.009811742543510475 -0.08810564399054943
-0.07919870079672202 0.0030759323237947245 -0.04517147209794898 -0.004008800482783515 -0.10484730397542943 0.015717834218721815 -0.09253494120595249 -0.08313721708587485
0.0002688624911971768 -0.13247172011866826 -0.06269738869890247 -0.1310216209421859 -0.11346512840021808 -0.04024922241412185 -0.09077682435654799 -0.09372529100205827
-0.0062723445533599915 -0.027890198399738178 -0.020735198898349953 -0.029578951927453623 -0.07228550773488614 0.013773950369101905 -0.03993170812453632 -0.01572955652593452
-0.07792211984178082 -0.013058536853933957 -0.11591607092732034 -0.09594125676771416 -0.06800966180326941 -0.06656386712513165 -0.019042916652679466 -0.03622506453749859
-0.11907731680286641 -0.025986104793978573 -0.14577186993746208 0.03169003781556418 -0.09750846916436182 -0.057439605256798115 -0.03960406400363693 -0.04131832643308888
-0.018035418002539896 -0.07069513516345063 -0.1001612726853424 -0.044949974252892606 -0.025294705719250212 -0.10861825588872102 0.0890171973302305 -0.13010489956406338
0.001240001787522423 -0.037422686836200834 -0.08954213009307035 -0.1329288535667995 -0.13889808393280387 0.023070462320207423 -0.05048891068342163 -0.07953609202168618
0.11657316471368616 -0.014702548629217209 -0.03701960341729469 -0.09178240609040159 -0.03380246557465245 -0.15960850732575138 0.047857692319337536 -0.10988064911162795
-0.15738616605498623 -0.028743700498288376 -0.01731143242797827 -0.0899155734872039 -0.06626023434885926 -0.08616051685933299 -0.09682937139344931 0.02711506049753521
0.004163422192137897 -0.10337338605286994 -0.09033473384498623 -0.11295932238572627 -0.12086412286475882 -0.041532570886454276 -0.10370830111081171 -0.06582778676941484
-0.1256093378714361 -0.1055532538840525 -0.05676982247685703 -0.06515335906570369 -0.035264036665289177 -0.14266930619175422 -0.04023617299711342 -0.11970772293867503
-0.09869433411629827 0.012058130438499393 -0.15708524773737792 -0.12712816703535676 -0.002808641881298709 -0.0810515856291806 -0.06247043125653775 -0.10092733130058283

conv2.bias f8 [32]
00000000: 9cb6 58e6 e5ba ac3f edf4 8aec 2fc0 a8bf
00000010: 5e4d 1588 37ed ccbf f97f 3946 53d3 d1bf
00000020: 2222 fe40 1578 d2bf beb5 8658 d91e bebf
00000030: 6247 3feb 1c22 cfbf c3d1 b0ad c16d c5bf
00000040: 8049 c0c0 0202 773f 9d80 2288 c010 d7bf
00000050: d55b f9b2 1a01 b63f 2dfe 8721 0ba8 b7bf
00000060: 8901 2b01 df51 a8bf f315 ed1f 28bb c5bf
00000070: 541b ec40 bcad b3bf 01cc 8995 ff08 c9bf
00000080: dcb0 2d64 6b49 bdbf 5d27 5f77 71c7 c7bf
00000090: 6717 e82a e09b dbbf 5d88 900c 7992 dcbf
000000a0: 5e75 54b8 951c c2bf ced5 bf80 1c05 b33f
000000b0: 41cc e29b eff8 c1bf 0d86 99ff e6c9 debf
000000c0: bfdc eda7 2714 a7bf c881 b9c6 83c0 90bf
000000d0: e6d5 9c18 76cd dabf 25d8 689f 5431 863f
000000e0: 13f5 964f 8d8d bebf 5bfc 045f 0117 c0bf
000000f0: 7907 10bf 44d6 d7bf 2524 5e11 bc1c a1bf
0.05611341893050545 -0.04834127199635838 -0.22598928589523387 -0.27852327211257905 -0.2885792860693376 -0.11765821849140587 -0.24322854506186348 -0.1674120042895436
0.00561715197911139 -0.36039746565257663 0.08595435018047166 -0.09240789002068857 -0.04749962701089589 -0.16977407034771339 -0.0768697412969293 -0.19558710862801834
-0.11440154262317342 -0.18577402428337111 -0.43138889494036053 -0.44643999316224897 -0.14149734020694898 0.07429674285216167 -0.14040942298524509 -0.4810731407252156
-0.04507564473072411 -0.016359385494412654 -0.41879036334589015 0.010836278071206415 -0.11934741204364156 -0.1257020677530559 -0.3724529138418045 -0.033422352905354814

fc1.weight f8 [128, 288]
00000000: 7738 3b5b e39f b5bf 44cb bb70 8164 b9bf
00000010: b89c 9078 2c8c b3bf d2c8 46cb 8f63 b9bf
00000020: fbf7 a6c5 e398 b3bf 7eba 6681 3271 a6bf
00000030: 9d3c 647d 1779 7c3f 8661 01c2 4b21 9fbf
00000040: 32f4 6d54 e507 843f d5b4 319e 4074 aa3f
00000050: d0f3 baec 5d3b 993f f0bd da74 aab9 8abf
00000060: b8d5 ced1 37b0 833f eac1 cbbb d475 b13f
00000070: 2da1 fe5a 9f05 80bf 7c34 5ee5 49b6 b03f
00000080: 29cc 2fdc 2d9c 9e3f 90d2 355b 8cad b53f
00000090: e1a2 441c fa55 b8bf 36e9 ef86 82f7 b8bf
000000a0: 4dfc 5427 26c6 b7bf 83b9 f060 3a1b b7bf
000000b0: 390e 8a6b d383 84bf 94f8 2499 d820 8dbf
000000c0: f488 32e4 e078 b3bf 1467 ac56 724e b4bf
000000d0: ab6b 5a78 4909 a4bf 5501 8bee 80ee b7bf
000000e0: cb5a 4ee9 187e 75bf 6d76 1f9d 67bb b6bf
000000f0: e0be 9981 e5cd aebf a63d 5243 956b a9bf
00000100: 86fa f0de 80ee b6bf b961 48b4 2203 a1bf
00000110: 9cd9 4547 0072 a4bf 8506 53b0 9df8 b7bf
00000120: 62c2 0338 fbc8 66bf e792 7061 715a 5abf
00000130: ac6b f88d df7e 95bf d41a fbdb f398 b7bf
00000140: 6209 8a02 1524 8f3f 69d7 091b 71fa 75bf
00000150: 2168 a7ec 4d1f abbf b22e 04ac 49b6 a2bf
00000160: b0d0 5b54 b977 91bf 4a8d beab 50ee ae3f
00000170: 2d33 c883 e269 b03f f896 d042 2ed0 aa3f
00000180: 3570 ffc6 e320 9b3f 7027 fda6 afbd b03f
00000190: 9241 fb3c 355a aa3f 9a3d 8576 a943 b03f
000001a0: 82d7 1cde 4cef a43f 938c 3862 9088 993f
000001b0: 64b8 4dab 28d4 a1bf 08fb 928e ded1 b1bf
000001c0: de23 920a 9ae9 73bf a32c 1654 32a9 b0bf
000001d0: a664 fec3 3d97 8b3f 48e0 034e 9448 acbf
000001e0: 0f3f 02ce 1490 9abf 0c4a b74c 2d4e b4bf
000001f0: 3ea8 f27f 6569 b8bf 78ef 41b5 aa34 ad3f
00000200: 0d1f f45a 07da aa3f 9295 14c2 0017 b83f
00000210: d89c 5621 5314 9f3f d002 37db 6d3f bd3f
00000220: d16a 335f aac0 ac3f 38d5 0354 2ef1 9fbf
00000230: cccf 32bf 8075 ab3f 609c df3d fc76 883f
00000240: e5aa f28e 4030 b63f f13b ff24 afff b2bf
00000250: 8e0c d7d0 375f b1bf 3c02 00bc 4453 86bf
00000260: c729 e9c6 ec63 763f ff86 707b 434a 93bf
00000270: c5f8 604c f146 b3bf e6fd a05b 877f b0bf
00000280: b42e 7528 fa2e abbf ef1e 8de5 84c6 91bf
00000290: e78a 49a6 2144 903f 2e96 9c81 6467 8dbf
000002a0: a109 3d13 0a4f a0bf 0c0e ab4d 1f04 b5bf
000002b0: 3a08 fe00 9b8f 803f 4712 a445 5b00 7c3f
000002c0: 3d99 5f60 68bb 8bbf c884 ac64 8ddd 9ebf
000002d0: 2e68 e341 f6ca b3bf f7b7 a1b7 65e6 9bbf
000002e0: 333d 21ee 3d06 b4bf 0115 ae83 031b 91bf
000002f0: ecfa dd9a 84df b0bf ca39 dc47 3344 813f
00000300: b13d c77d daae 923f 5906 71e0 c7a8 b7bf
00000310: 4399 fdc7 59a9 933f 6c20 ea12 f8a1 8abf
00000320: 6261 b1f0 20d4 9dbf 4d75 7b46 52e6 aebf
00000330: e7a7 3fa0 938f 7bbf 6e75 a7c1 bd1c 92bf
00000340: 8d4a e328 bd35 bbbf eb4e c193 b587 afbf
00000350: 0aef b9bc 689e adbf b2bd 45e9 c3fd b3bf
00000360: 0c62 cac1 37d0 9abf 27b8 10b7 d9d5 a2bf
00000370: a7d4 019a a63a b3bf e4f1 7fb7 d4d5 b9bf
00000380: ad41 ab4e 1e25 97bf eb1d 7f26 ae5a a8bf
00000390: efe1 fce3 cb29 5e3f bb49 9043 1933 abbf
000003a0: 9f97 1cb3 14b6 acbf 0000 0020 eca1 a8bf
000003b0: 0000 00a0 69c8 78bf 0000 00a0 db32 a03f
000003c0: 0000 00e0 0a5c a43f 0000 0040 a89e a83f
000003d0: 0000 00a0 86b6 9b3f 0000 0060 cbda a13f
000003e0: 0000 0040 86f4 a43f 0000 00e0 00b7 a3bf
000003f0: 307d f5df 3804 b2bf 082d bc52 aa1d 8dbf
00000400: eaf3 1c46 0e4b 423f 79b0 723f 4273 93bf
00000410: d58f 08fd 5cb9 a4bf 9a2c 89cd 0b57 9e3f
00000420: 090a e21f c7e2 613f dba5 16de 56e8 903f
00000430: 2ea0 ec80 a45e 51bf 5875 9201 5673 a33f
00000440: 1483 1eb6 b576 b83f d543 2712 7c42 86bf
00000450: 1509 f98a 9500 a63f 43ab 8ed4 2408 b33f
00000460: 2d95 0914 da9d ad3f 9dfb feee 7766 5e3f
00000470: 9b61 9804 4add b23f 7bca 15b8 ba62 b43f
00000480: fcf7 d5a6 cd16 a3bf ac31 b8ad 9c65 b33f
00000490: e17a 77a5 9acd b73f 1b04 8812 dde0 7c3f
000004a0: c433 877e fc61 b23f 9077 4cc3 a0e6 9c3f
000004b0: 99fb d518 9a51 bb3f bcfd ef07 8a18 b73f
000004c0: 4e3c 8994 f4d1 553f 6522 99f4 86b1 abbf
000004d0: 247e def7 119b b6bf 580c 45fa e697 683f
000004e0: 9bd3 a833 d8f6 b2bf 7f96 f2b0 bd72 90bf
000004f0: 838a 31af 5652 98bf 98d7 e2fb ffec adbf
00000500: 6302 39eb 0e2f a0bf dc94 b7ca 61d5 b8bf
00000510: 51c4 d260 d581 a8bf 0d09 4fcb f3df aebf
00000520: 4e92 fd3a a256 98bf 6343 c15c 2a80 673f
00000530: 62fa d707 0c6e b9bf a570 ae05 8f04 bdbf
00000540: 480a 4bec 1911 9dbf 371f 6fed a8fd acbf
00000550: bee2 e6db e16e acbf 6720 81cb 3e01 6a3f
00000560: 8fa1 c9d6 d9f0 a8bf 34be a645 2fbf 92bf
00000570: 0000 0060 dcab a03f c2ca 950b ac28 9bbf
00000580: 0000 0020 f3b1 a1bf e937 de1c 6666 aebf
00000590: 09c1 e010 5472 b1bf ed47 2c86 ec31 8e3f
000005a0: 5a1e 8a75 45ec bdbf 9764 2a83 b068 a1bf
000005b0: ecb9 5823 12b1 abbf c67d 96fb 079c 82bf
000005c0: 5f48 17f1 11dd b0bf 253a 6bff 651b b1bf
000005d0: b3b2 93d4 f9e8 b4bf 521e 7878 bb55 35bf
000005e0: e8d8 81ae fab2 b0bf ae8c 608d 5dad abbf
000005f0: 86e3 568a ee1d 8cbf 75a1 2a20 82bb b2bf
00000600: e9b0 eb0c 7d4e a9bf c1e3 0418 9eb3 a7bf
00000610: 0000 0040 a525 a23f a2fe 03b7 85f6 84bf
00000620: 0000 0060 81e5 933f 0000 0040 a84f 773f
00000630: e09c f627 9124 a23f d116 caed d1b6 9dbf
00000640: 152d 7211 45c6 65bf 6f44 8acb 8dff 9cbf
00000650: 73cc 0071 d32b b4bf 15f6 df35 4819 5ebf
00000660: ad22 6356 f353 8c3f 1d72 e1ea fb28 843f
00000670: 0439 06c0 580a b1bf 4428 58a7 dee5 92bf
00000680: 807d 9530 d59e b5bf 7e94 0c50 c988 b1bf
00000690: 7489 80e1 4bbd 99bf 6f42 2518 60f5 893f
000006a0: 3989 fbed 595a 71bf 9d56 9841 b7dc a0bf
000006b0: bcce a8ac e806 a7bf 3331 f98b 0a40 b8bf
000006c0: 6781 fa0e 7e3d adbf 0d3a 1fc9 56dc b3bf
000006d0: dc12 253a 62e8 b1bf 6afb 9ac0 f0f8 83bf
000006e0: e4c3 8eb9 e054 883f e352 8abf b475 b3bf
000006f0: c793 f401 188a b2bf 5074 0edb 89e2 81bf
00000700: 2636 2ca1 525d 99bf 20bb 5a4e 08cc b7bf
00000710: a345 5b5b bfc0 673f 5a92 d9fd 1f1b b2bf
00000720: 6335 94f4 5816 89bf a14e a714 7f15 753f
00000730: bf0d 7c07 931a 93bf 8285 2f29 9d4d 843f
00000740: 091a 64ef fa7d b4bf 9498 66e6 2cf8 a5bf
00000750: 00db 7343 170b b4bf 3d53 15a2 4c04 b6bf
00000760: ac76 c45a 6d76 94bf 2812 3541 8be3 87bf
00000770: 0116 eff3 bf09 433f b246 8bf7 ee82 b0bf
00000780: 491e 5f79 288d 8e3f 34c0 db07 dbf7 6abf
00000790: 912d 34a4 aa20 b7bf 6bc9 0e4b 954d 80bf
000007a0: 0000 0060 f467 9d3f 0000 00e0 d104 6dbf
000007b0: c37a 5238 f61c a43f 0000 00e0 56df 96bf
000007c0: 0000 0020 41f9 81bf 53b1 3e4d 663d b03f
000007d0: 0000 00c0 3e9f adbf 8d24 c4f6 5fd0 7ebf
000007e0: 239d a63d 76e7 a33f 235e 3f0c ca84 963f
000007f0: 43e6 deeb 4908 b43f 86f8 b967 4196 803f
-0.08447094895675088 -0.09918984415325577 -0.07635763114432137 -0.09917544091038913 -0.07655166221135794 -0.04383237676244266 0.006951419598649225 -0.030400451389455373
0.009780685080608451 0.051668185530482504 0.02464052922617893 -0.013049441996684202 0.009613452997522795 0.06820420822965159 -0.007823224033771748 0.06528150415233996
0.029892651142244517 0.08467938639462091 -0.09506190481318867 -0.09752670091976232 -0.09286726436856547 -0.09025921694476406 -0.010017062873209347 -0.014222805188748112
-0.07606320925927773 -0.07932200065661404 -0.03913335413127269 -0.09348302673152394 -0.0052472088908845456 -0.08879706941612549 -0.060164615698224955 -0.04964891859810487
-0.08957677309897791 -0.03322704745022826 -0.03993225927381447 -0.09363732867043424 -0.0027813822381335543 -0.001608477328553787 -0.02099179557817947 -0.09217762108446986
0.015205539836874397 -0.005365793055366421 -0.05297320855943633 -0.03654699539955909 -0.01705827309975011 0.060411950077901524 0.06411567418417681 0.0523695427475967
0.02649265195928781 0.06539438082577731 0.05146948213007642 0.06353243964735214 0.040888216126787405 0.024935012812545464 -0.03482176867588363 -0.0696086023408321
-0.004861451839254875 -0.0650817351617428 0.013472063583139193 -0.05524123623212113 -0.02594025142076278 -0.07931788561771941 -0.09535822271087199 0.05704244101158812
0.05244467721246169 0.09410099733630364 0.03035097018223784 0.11424910165716118 0.05615742122764334 -0.031193469884745556 0.05363085111585483 0.011945696485737567
0.08667376985492188 -0.07421393063781047 -0.06785916184075999 -0.010901009547525146 0.005466389570367664 -0.018837980660584282 -0.07530124773709009 -0.06444593417199193
-0.0530927824389357 -0.01735885287351285 0.015884900831575257 -0.014357361989435349 -0.031853022430840434 -0.0820941509837711 0.00808640572336482 0.00683627751482569
-0.013541045609554042 -0.030142030019423754 -0.077315703474057 -0.02724608357714683 -0.07822024406163024 -0.01670461169444071 -0.06591061383185676 0.008430863028050423
0.018245138098618777 -0.09241914014366993 0.019200709182223063 -0.013004243924356916 -0.029129519167640956 -0.06035096273783811 -0.006728722251844821 -0.017687764115057396
-0.10628874061812095 -0.06158225468302966 -0.0578491907480992 -0.07809090085151274 -0.026184912875210783 -0.03678779945072135 -0.07511368999424183 -0.10091905097937787
-0.022602532912800722 -0.04756683559349625 0.0018410197371406774 -0.053124227044594595 -0.05607666670248012 -0.048110369592905045 -0.006050503347069025 0.0316380150616169
0.039764728397130966 0.04808545857667923 0.027063468471169472 0.0348723940551281 0.04092807322740555 -0.03850558027625084 -0.07037692516086191 -0.01421673836696026
0.0005582637497593111 -0.018994364855345645 -0.040476709258910816 0.029628929538642802 0.0021833314086177097 0.016511304192737924 -0.0010601622086117246 0.03798931855383597
0.09556136795300701 -0.010868996910092502 0.0429732067245984 0.07434301556956506 0.05784493918035092 0.0018554850794172191 0.07368910419643841 0.0796314906527104
-0.037283350578022095 0.07576922646712231 0.09298101939883054 0.007050384105697051 0.07180765236917269 0.028223525924765236 0.10671389681190958 0.09021818822656419
0.0013317955473615309 -0.05408879981820717 -0.08830368329517363 0.003002120140224867 -0.0740790487405562 -0.016062702107453305 -0.023751596873248914 -0.058448791024985514
-0.031609026159007646 -0.09700595091961212 -0.047865551060916396 -0.06030237061306041 -0.02376798138665697 0.0028687312497272396 -0.09933543387885771 -0.11335080994325837
-0.028385548636615604 -0.05662277124753106 -0.05553346452092488 0.003174421926846849 -0.048712546796028204 -0.018307436586552053 0.03256119415163994 -0.026522339064693375
-0.03456077352166176 -0.059374991439753284 -0.06815076267298904 0.01474365982497613 -0.11688646430604291 -0.034001842509675466 -0.05408531838871852 -0.009086668362953253
-0.0658732617951343 -0.06682431684314645 -0.08167993011347612 -0.0003255446140148821 -0.06523100624494627 -0.054057048328354326 -0.013728965374740342 -0.07317364964786129
-0.04942694456789971 -0.04629224818422229 0.03544346243143082 -0.01023582901734638 0.01943018101155758 0.00569120142608881 0.03543523419221528 -0.029017715586198648
-0.002658018969275875 -0.02831861071405622 -0.07879373082032419 -0.001837082403198469 0.013831997941808305 0.00984379587696887 -0.06656412780850834 -0.018455008472337178
-0.08445484577304363 -0.06849344448399283 -0.025136170996242282 0.012675047623504214 -0.004236556327415202 -0.03293392825814332 -0.04497458560618159 -0.0947271911365462
-0.05710977490275831 -0.07758085642056063 -0.06995214385558363 -0.009752159955835633 0.01188064161564912 -0.07601480175282975 -0.07241964385737197 -0.008732869145939542
-0.024770060622406963 -0.09295703804921773 0.002899526351804753 -0.07072639415270868 -0.012249655689198396 0.0051474536980610506 -0.018656060535261917 0.009913661784539899
-0.08004730553157215 -0.04290905296811434 -0.0782942332915404 -0.08600310284721231 -0.019983013787274004 -0.011664474418133855 0.0005809962530000657 -0.06449788611942145
0.014917675212827624 -0.00329201487954125 -0.09034220227129298 -0.007960478165703852 0.02871686778962612 -0.0035423373337835073 0.03928346097494775 -0.02233634702861309
-0.008776196278631687 0.0634368837915578 -0.05785556882619858 -0.007522940501311426 0.03887528898786232 0.02199092578652374 0.07825147636949574 0.008099089601497644

fc1.bias f8 [128]
00000000: 884f 9419 5039 b0bf d790 a9ff 1d57 92bf
00000010: b9dc 02da 8e0d bbbf 6897 6da4 270b d83f
00000020: 7f69 6507 aae7 b7bf bf5e 8164 6e43 6abf
00000030: 7b88 c903 4392 c2bf d828 2632 d910 c6bf
00000040: 5164 c4cc 20c4 b5bf 7420 8051 1a22 dabf
00000050: c816 3102 2652 d4bf 80f3 9c99 ce0c cebf
00000060: 464b 0992 1271 d5bf b57d 9f2f 502f bbbf
00000070: 3a87 42d0 c168 a0bf efb1 88d5 9279 bcbf
00000080: 3929 c922 b86a d7bf d497 02a9 aa36 b2bf
00000090: 5740 7d5a 5fa3 b3bf 7905 7bda 31df adbf
000000a0: bae9 9c71 ddec b1bf 0d41 587a e64c c4bf
000000b0: 513a 940b 9a19 c1bf 95f3 6c97 67c6 b3bf
000000c0: 7d9e 54de 0994 60bf 5c50 11f8 48b5 c5bf
000000d0: a0d1 cff2 b2db d1bf 9e5a b27a 8a1b a9bf
000000e0: 8726 ab35 6ae4 a8bf 2346 6e99 8e90 a3bf
000000f0: d630 f813 7f44 65bf c55b 2c70 2e81 ba3f
00000100: 55a1 3074 5ffa 9cbf ebc1 af93 e54e afbf
00000110: b8b1 88db d055 b5bf 5181 aebe dfe2 adbf
00000120: 2e53 b863 a3a8 a9bf ffed 47dc 5a1a ccbf
00000130: f463 cb97 a42b d1bf 5fcc 953d e772 b3bf
00000140: abd5 649c caf4 c2bf f1ff bc82 048c c7bf
00000150: cacb d53f 9b6b a0bf 2113 7a60 415d cbbf
00000160: 63b0 1f76 7458 973f dad0 aca9 5387 9fbf
00000170: 1b1f 2ec6 bc25 b7bf e39f ed81 9e72 d4bf
00000180: 4b02 10d7 156d b8bf b59c 9035 f6fd a7bf
00000190: 73b8 ff03 6b15 d2bf f3b4 549e b62f c9bf
000001a0: 3797 1cfd e43a bfbf 9d14 899e 7f71 b1bf
000001b0: 3e53 cb05 7cc9 debf 89f8 d52e 0012 cd3f
000001c0: e736 adf1 c4d6 97bf 7cfd 4ec2 0827 b8bf
000001d0: 37cd 69da 5068 cfbf a471 75a0 af29 c0bf
000001e0: 9928 d6c4 7320 babf f4dd 364d c48f a5bf
000001f0: 73cf 2df0 1122 b1bf 51de aa15 f113 bcbf
00000200: 334b 6bf4 9005 d0bf d1a4 38a0 1c0a b4bf
00000210: b59d a089 d66a bcbf 0708 44f3 5073 d0bf
00000220: df4a 8a77 2c5b babf d61e c63a 5991 bfbf
00000230: 0b02 ffd2 d566 cdbf 9065 c696 28a7 a1bf
00000240: d373 b640 7d56 a9bf 03e3 f8da b5d8 a3bf
00000250: dee8 503c 8348 b5bf 3c8f 1a3c a292 67bf
00000260: cbd4 d674 8b1f 90bf 23aa 93b7 4deb bbbf
00000270: 3d03 d6b6 80b4 cbbf 8745 3d88 da1b d9bf
00000280: da02 302d 2abd babf 7bb0 4616 e58c e3bf
00000290: 41a2 5248 fa82 bbbf c359 af04 6f3b b0bf
000002a0: ad2d 1606 426f 9cbf 7d72 a93b 0c62 c4bf
000002b0: bb35 ca3b 18ce d5bf c325 644a 271a b2bf
000002c0: 3484 eb48 4d09 673f bcb6 0d6f caa0 b2bf
000002d0: cde1 8fe6 4397 b4bf 7cc1 23c0 ced5 d9bf
000002e0: de50 ba88 5430 b5bf 7efa 9e8a 9abd 833f
000002f0: 7caa a4ac 3166 dfbf 0769 7cb1 4c6e a5bf
00000300: 0d42 1e8f 81da d3bf 3ecd 607f ace9 dfbf
00000310: 5d8d af3b b4a6 b9bf d7ae f20f 2128 c5bf
00000320: 05e8 e7a4 4cc7 c8bf 6ea7 8127 62ba d1bf
00000330: a9e6 1ec5 48a7 cabf e381 4d5b 001b afbf
00000340: 356e c9b5 d2fe acbf 1450 22ea 117b 6c3f
00000350: 5ff6 6e22 a726 d6bf eeda e396 edfc cebf
00000360: 47f2 1a6b c91f cbbf b58c 7e7f 7240 d2bf
00000370: a63e 09ae 47e2 a6bf 003d f709 80d8 dcbf
00000380: bf33 bc26 db35 bcbf 32e6 09ee 5df8 ba3f
00000390: 7a78 1b1e 5c1b dabf bea9 e976 97ce b9bf
000003a0: 3f55 192b e076 563f 2e79 a307 ed3b d8bf
000003b0: 1095 8877 e9e9 cabf 76e9 2d13 6017 b1bf
000003c0: 923c eaa9 2f56 c53f 8681 1255 a2ac adbf
000003d0: c4e4 00a9 6ce4 e0bf d655 70d1 1942 c03f
000003e0: 3c11 6b52 27b0 b6bf d376 816d 02ca cfbf
000003f0: 2154 5aaf 996e dcbf d76f e695 ba47 b8bf
-0.06337452530379839 -0.017910450677292324 -0.10567562887705408 0.3756808381789285 -0.09337866478509758 -0.0032059818368387056 -0.1450885551922204 -0.1723891730183087
-0.08502392768095147 -0.40833147009880766 -0.3175139447597357 -0.23476583958281694 -0.33502640019758123 -0.10619069254561604 -0.0320492331241113 -0.11123006547195023
-0.3658886279778418 -0.07114664674972399 -0.07671161612711451 -0.05834346572874955 -0.07002052329781963 -0.158596811045307 -0.13359380307561478 -0.07724616476930486
-0.0020237152808880153 -0.16959488022496572 -0.2790343638619337 -0.04903824565660851 -0.04861766724714039 -0.03821225760397009 -0.0025961381904889653 0.10353365172009805
-0.02829884668986556 -0.061148809698241845 -0.0833406959506594 -0.058371536280221854 -0.050114732668737325 -0.2195542884436321 -0.26828875373536154 -0.07597203496497816
-0.14809544216556722 -0.18396049865441413 -0.032070972006202306 -0.213783428294982 0.02279836626978272 -0.03078966830362693 -0.09041957701094498 -0.3194957989530833
-0.09541450977850123 -0.046859449423487666 -0.28255725279348737 -0.19676859599113747 -0.12199240855678971 -0.06813809986586468 -0.4810476357063641 0.2271118382158799
-0.023280217409868433 -0.09434561485158172 -0.24537096657477672 -0.12627215704823158 -0.10205768161373142 -0.042112478662087144 -0.06692611802810493 -0.10967928675642581
-0.2503397356896812 -0.07827929412509894 -0.11100521907848455 -0.2570383430139604 -0.10295370024168048 -0.12331159291181434 -0.22970078280015147 -0.03447844353213292
-0.04948798575353632 -0.03876274393082293 -0.08313770506439108 -0.002877537598424155 -0.01574533367757595 -0.10905919772964316 -0.21644600799120353 -0.39232505135176904
-0.10444892504893791 -0.6109490809517547 -0.1074673105782802 -0.06340688576106061 -0.027768165227411924 -0.15924218094996326 -0.3407040199170656 -0.0707115704173225
0.0028120526761630463 -0.07276597224491871 -0.08043312434154544 -0.4036747814525581 -0.08276871049958198 0.009638984065415853 -0.49061242923441006 -0.041857144037026166
-0.3102115533484103 -0.4986373180319851 -0.10019995171710634 -0.16528714445791223 -0.19358213474316713 -0.27700094087651095 -0.20823011040720488 -0.06075287928138431
-0.05663164586141215 0.0034766530889758316 -0.3461091839088563 -0.24209375255278281 -0.21190755586384766 -0.28518354845636945 -0.044695129389422036 -0.4507141206094758
-0.11019677825625161 0.10535227834216057 -0.4079199117676421 -0.10080858853476735 0.0013711156028837904 -0.3786575865359677 -0.21026342712972523 -0.06676292865987485
0.16669269367819034 -0.057957718739319694 -0.5278838444566181 0.12701723791603453 -0.08862539064563618 -0.24835234019240335 -0.44425050854016673 -0.09484449538871274
