best-FC-Overfit-With-Coordinates.pt (torch, 7916 bytes, 8 tensors)

input_layer.weight f4 [25, 4]
0	0xbf78fe06	-0.9726261
1	0xbe4843ed	-0.19557162
2	0x3f6f8f0c	0.9357765
3	0x3ed8e262	0.42360216
4	0x3edba00b	0.4289554
5	0x3f423be3	0.7587263
6	0x3e1457c3	0.14486603
7	0xbeb33625	-0.35002246
8	0xbe80b28a	-0.25136214
9	0xbee11ce4	-0.43967354
10	0x3c72830a	0.01480175
11	0xbe47ae62	-0.19500116
12	0x3f0ffc08	0.56243944
13	0xbf18b6b1	-0.59653765
14	0xbe81cbfd	-0.25350943
15	0x3f2a7cf0	0.6659689
16	0xbf521f69	-0.8207918
17	0xbf23d893	-0.6400234
18	0xbefeb372	-0.4974628
19	0x3f1cc7e4	0.6124251
20	0xbeec91b0	-0.462049
21	0xbf07b933	-0.53016967
22	0x3f096cd9	0.53681713
23	0x3f292a94	0.66080594
24	0x3f1bfce9	0.60932785
25	0xbaa6eb85	-0.0012734985
26	0xbf4253b2	-0.7590896
27	0xbefc598a	-0.49287063
28	0xbd0d4e53	-0.034498524
29	0xbf6cff9e	-0.9257754
30	0x3dd63ce1	0.104608305
31	0xbdb7242a	-0.089424446
32	0x3cf3a8d4	0.02974359
33	0xbf2082b6	-0.6269945
34	0xbd5b6d1f	-0.053570863
35	0x3f32364d	0.69614106
36	0xbdae245e	-0.0850303
37	0xbf2b98a5	-0.6702979
38	0x3c380bff	0.011233329
39	0xbd8bf71a	-0.0683424
40	0xbf003df9	-0.5009456
41	0x3f4ceb98	0.8004699
42	0x3d225c40	0.039638758
43	0x3e61c049	0.22046007
44	0x3e014497	0.12623821
45	0x3f09f7ee	0.53893936
46	0xbe887441	-0.26651195
47	0xbe7a3f4c	-0.24438208
48	0x3d9bf0bb	0.07614275
49	0x3f50a0b1	0.81495196
50	0xbf20d2a8	-0.62821436
51	0x3f0a01d6	0.5390905
52	0xbf082b31	-0.53190905
53	0xbdb82bd5	-0.08992735
54	0xbabfd80f	-0.0014636534
55	0x3dfe680c	0.12422189
56	0x3ee86d1d	0.45395747
57	0xbfa5b213	-1.2944969
58	0xbd36e841	-0.04465509
59	0x3cb9ca7d	0.022679562
60	0xbf657cfa	-0.89643824
61	0xbf4c2848	-0.79748964
62	0x3ecc26cc	0.3987335
63	0xbe18290e	-0.14859411
64	0x3f423bc7	0.75872463
65	0x3cefd16c	0.029274665
66	0x3d8e0a04	0.06935504
67	0x3e3c45e1	0.18386032
68	0x3e8cebe2	0.27523714
69	0x3e7aad60	0.244802
70	0xbe5ccc5f	-0.21562336
71	0x3f414f06	0.75511205
72	0x3ed0ec7f	0.40805432
73	0x3d9f1cc2	0.07769157
74	0xbf124bf7	-0.57147163
75	0x3f42cfb6	0.7609819
76	0xbe97834e	-0.29592365
77	0x3e5b2bd6	0.21403441
78	0x3f37640e	0.71637046
79	0xbdf93f08	-0.121702254
80	0x3e8c0984	0.2735101
81	0xbdc69f11	-0.09698308
82	0xbf13505b	-0.5754449
83	0xbeb2b6d0	-0.349051
84	0x3eb7bbbc	0.35885417
85	0xbec9ef53	-0.39440402
86	0xbf2dd958	-0.67909765
87	0x3eb14e83	0.34630212
88	0x3f2d138e	0.67607963
89	0xbf334321	-0.70024306
90	0x3e3f36dc	0.18673271
91	0xbb3a20f1	-0.0028400982
92	0x3ea32d8a	0.3187068
93	0xbe9b02c1	-0.3027554
94	0x3ef1c433	0.4722
95	0x3ee76ad5	0.45198694
96	0xbf06d538	-0.52669096
97	0x3f97f0ff	1.1870421
98	0x3efd39aa	0.49458057
99	0x3f2d056b	0.6758639

input_layer.bias f4 [25]
0	0xbeff58d4	-0.49872458
1	0xbfef7c14	-1.8709741
2	0x4040296d	3.0025284
3	0x3eb7b111	0.35877278
4	0x3f6e8be2	0.93182194
5	0xbe7f9e42	-0.24962714
6	0x3e30edf0	0.17278266
7	0x401f0234	2.4845095
8	0x3f63d4d0	0.889966
9	0x4057e7ee	3.3735309
10	0xbf97e338	-1.1866217
11	0x401334f9	2.3001082
12	0x3e687fc4	0.22704989
13	0x403962e1	2.89666
14	0x3f3f6cb5	0.7477525
15	0x403db5bd	2.9642174
16	0xbe6ffb7f	-0.23435782
17	0xbf486894	-0.78284574
18	0x3e8e275f	0.27764413
19	0xbfd4c254	-1.6621804
20	0x3fc852cc	1.5650268
21	0x40176af4	2.365903
22	0xbf5d52bd	-0.86454374
23	0xbf75240c	-0.9575813
24	0xbfc34852	-1.5256445

hidden_layer.weight f4 [20, 25]
0	0x3e05c1c3	0.13062195
1	0xbdb8b286	-0.09018426
2	0x3f816a49	1.0110561
3	0x3da91789	0.08256442
4	0x3fa4cfe4	1.2875943
5	0x3e3fe0b8	0.18738067
6	0x3d8f2e9a	0.069913104
7	0x3f0ff1ae	0.5622815
8	0xbf8e14c3	-1.1100086
9	0xbf630d76	-0.88692415
10	0xbf4ccf3d	-0.8000372
11	0x3e90286c	0.2815584
12	0x3eaef1ca	0.34168845
13	0xbed9393d	-0.42426482
14	0xbde6b8c0	-0.11265707
15	0x3f27bc36	0.6552156
16	0xbec7098b	-0.38874468
17	0x3d127dc5	0.035764474
18	0xbe82ed43	-0.2557164
19	0xbf1db0ad	-0.6159771
20	0xbe749bcf	-0.23887561
21	0xbe9292a3	-0.286275
22	0xbebbd1be	-0.36683458
23	0xbea01ba5	-0.3127109
24	0x3e941943	0.28925523
25	0x3e178688	0.14797413
26	0xbe6230cd	-0.22088929
27	0xbeb0c50b	-0.34525332
28	0x3dccd067	0.10000687
29	0x3fac0a31	1.344061
30	0x3db664dc	0.08905956
31	0x3f2c5947	0.67323726
32	0x3f9ef2bf	1.241783
33	0x3e1e1c3f	0.15440463
34	0xbfca0faf	-1.5786036
35	0xbf2fb4fe	-0.6863555
36	0xbeb101b3	-0.3457161
37	0x3f256f52	0.64622986
38	0x402456d5	2.5677998
39	0x3e811054	0.2520777
40	0x3fde8b2a	1.738622
41	0x3e2183e5	0.1577297
42	0xbde51e30	-0.111873984
43	0xbdd57f67	-0.10424691
44	0x3c45873a	0.012056166
45	0xbe24f923	-0.16110663
46	0xbf2368f3	-0.63832015
47	0xbd26eda7	-0.040753987
48	0x3eddb729	0.43303803
49	0xbd954dbd	-0.07290218
50	0xbcfd3cd3	-0.030912792
51	0x3da41ed8	0.080136955
52	0xbd413b8c	-0.04717593
53	0xbe15911a	-0.14606133
54	0x3bd59260	0.0065176934
55	0xbd624ccd	-0.055249024
56	0x3db1c852	0.08680786
57	0xbd5dcd5b	-0.05415092
58	0xbe011b1d	-0.12607999
59	0x3d435088	0.047684222
60	0xbe202a66	-0.15641174
61	0xbe56957f	-0.20955466
62	0xbbb1930f	-0.005419142
63	0xbe325a73	-0.17417316
64	0xbe0e2991	-0.13883044
65	0xbdcc2a05	-0.09968952
66	0xbe427c44	-0.18992716
67	0xbdf581d4	-0.119876534
68	0xbe62f469	-0.22163548
69	0xbe0a6709	-0.13515867
70	0xbe77d80f	-0.24203514
71	0x3dcd88f0	0.100358844
72	0x3df0de4e	0.11761151
73	0xbc66b374	-0.014080871
74	0xbcff361e	-0.031153735
75	0x3f4f2c9c	0.80927444
76	0x3f37164b	0.7151839
77	0xc03e9f51	-2.978474
78	0xbd94c005	-0.07263187
79	0x3feb0a7e	1.8362577
80	0x3daae458	0.08344334
81	0xbe7fc8ea	-0.24978986
82	0x3ffceb80	1.9759369
83	0xbda67875	-0.08128444
84	0x3ec7f581	0.39054492
85	0x3f13ef67	0.57787174
86	0xbe8daecb	-0.2767242
87	0x3e6eec1d	0.23332258
88	0x3a5a1d76	0.000832043
89	0xbf56b9e9	-0.83877426
90	0x3ff006d3	1.8752083
91	0x3e0f8676	0.14016137
92	0xbd0e221e	-0.034700505
93	0xbde0c883	-0.109757446
94	0x3eb63e6b	0.35594496
95	0xbdedee71	-0.11617745
96	0xbe486cd5	-0.19572766
97	0xbf50aade	-0.8151072
98	0x3e909ccd	0.2824463
99	0xbe4c0022	-0.19921926
100	0x3f475a09	0.7787176
101	0xbb47fe60	-0.003051661
102	0x3f008d1f	0.50215334
103	0x3fa1c5e6	1.2638519
104	0xbf8108c9	-1.0080806
105	0xbfa12d80	-1.259201
106	0xbf0a50f5	-0.5402978
107	0xbfbcdfd8	-1.4755812
108	0xbf90ecc1	-1.1322252
109	0x3fe46877	1.784438
110	0x3cb92f7d	0.022605652
111	0x3e08f32d	0.13374014
112	0x3f4a5950	0.7904253
113	0x3edea281	0.43483356
114	0x3e8168a0	0.25275135
115	0xbeb4a1bd	-0.35279647
116	0xbe40491a	-0.18777886
117	0xbedd0f5d	-0.43175784
118	0xbf6ea498	-0.932199
119	0x3e7df84b	0.24801748
120	0xbf3c5bff	-0.73577875
121	0xbf440a2a	-0.7657801
122	0x3d9cda5b	0.076588355
123	0x3d9fbbb7	0.07799476
124	0x3e56c69c	0.20974201
125	0xbf168564	-0.5879729
126	0xbf875330	-1.0572262
127	0x40370851	2.8598826
128	0x3d080285	0.033205528
129	0x3f0bf772	0.54674447
130	0xbe9540d5	-0.29151025
131	0x3f029578	0.5100932
132	0x3e433a56	0.19065222
133	0x3e3de788	0.18545353
134	0xbf75b1f8	-0.95974684
135	0x3e6932c9	0.22773279
136	0xbebd3339	-0.36953142
137	0xbe1e07ee	-0.15432712
138	0x3f563c55	0.8368581
139	0x3f2a18a2	0.66443837
140	0x400842c4	2.129075
141	0x3ac53406	0.0015045411
142	0x3e468ae6	0.19388923
143	0x3c803239	0.015648948
144	0x3c4cc3b5	0.012497832
145	0x3f9ab2a5	1.2085768
146	0xbe76afed	-0.24090548
147	0x3e7b9a13	0.24570493
148	0x3e9edccc	0.3102783
149	0x3ee37e90	0.44432497
150	0xbe426f3a	-0.18987742
151	0xbdfe3b28	-0.12413627
152	0xbda93806	-0.08262639
153	0x3d919a0b	0.071094595
154	0xbda7b4f0	-0.08188808
155	0xbe2b481a	-0.16726723
156	0x3da32a47	0.07967048
157	0xbb6c2fa7	-0.0036039145
158	0xbe27fb74	-0.16404516
159	0xbe48c464	-0.19606167
160	0xbc90fd70	-0.017698973
161	0xbe58c067	-0.21167146
162	0xbe72e0dd	-0.23718591
163	0xbd817320	-0.063207865
164	0xbe19158d	-0.14949627
165	0x3db3bbe2	0.0877607
166	0xbe126f26	-0.14300212
167	0x3d82e7e3	0.06391885
168	0xbe234154	-0.1594289
169	0xbd283648	-0.04106739
170	0x3d6d97e2	0.058006175
171	0xbe811876	-0.25213975
172	0xbe8285af	-0.25492617
173	0xbe1b77c4	-0.15182406
174	0x3cad6f00	0.021171093
175	0x3d1aafd9	0.037765358
176	0x3ee7dfdd	0.45287982
177	0x3f6b4aba	0.919109
178	0x3ea70341	0.3261967
179	0x3f053d71	0.5204688
180	0x3ec95723	0.39324293
181	0xbf917838	-1.1364813
182	0x3f994d5f	1.1976737
183	0xbea8204f	-0.3283715
184	0xbf40cede	-0.75315654
185	0x3eea99b7	0.458204
186	0x3e66d980	0.22543907
187	0xbd0d4fdb	-0.034499984
188	0x3fdbaef6	1.7162769
189	0xbe387d9b	-0.18016665
190	0xc02ac35c	-2.6681738
191	0xbee163d2	-0.4402147
192	0xbe969ccd	-0.29416505
193	0xbdbe5453	-0.09293427
194	0x3f672e61	0.90305144
195	0xbf585581	-0.8450547
196	0xbfaeac21	-1.364628
197	0x3d76933d	0.06019901
198	0xbdc7e070	-0.09759605
199	0xbe5bd390	-0.21467423
200	0xbe26d19b	-0.16290896
201	0xbe9a57f1	-0.3014522
202	0x3cb0c510	0.021578342
203	0x3ce101ec	0.027466737
204	0xbe522bfa	-0.20524588
205	0xbdc9569a	-0.09830971
206	0xbe6eb7b1	-0.2331226
207	0xbe50d42e	-0.2039344
208	0xbe99d47e	-0.3004493
209	0xbda307f9	-0.07960505
210	0x3dd17f4a	0.102293566
211	0xbeadd03c	-0.33947933
212	0xbe1f4b4a	-0.15556064
213	0x3c4292ac	0.01187579
214	0xbdf4314c	-0.11923465
215	0xbdefdd95	-0.11712185
216	0x3cd5d2f4	0.026101567
217	0xbe1270c8	-0.14300835
218	0xbe52adab	-0.20574062
219	0xbe4018be	-0.18759438
220	0xbe89ff74	-0.26952708
221	0xbdaf7f5c	-0.08569214
222	0xbdeab6fb	-0.11460682
223	0xbd5bdf4f	-0.05367976
224	0xbe157d9b	-0.14598696
225	0xbf83c213	-1.0293602
226	0xbde3df69	-0.111265965
227	0xbf8a5a39	-1.0808784
228	0x3db337b9	0.08750863
229	0xbfcb90d3	-1.5903572
230	0xbe2d1c93	-0.16905431
231	0xbf1d1693	-0.6136257
232	0xbd63bf9b	-0.05560265
233	0xbee53124	-0.44764054
234	0x40562dea	3.3465524
235	0xbf9fcbd1	-1.2484075
236	0xbd160463	-0.036625277
237	0xbc7fb8f0	-0.015608057
238	0xbf3d4efb	-0.7394864
239	0x3ec3dc16	0.3825385
240	0xbf85f596	-1.0465572
241	0xbe20a5c2	-0.15688232
242	0x3ea65f34	0.3249451
243	0x3e864543	0.26224717
244	0x3ce37ef2	0.027770493
245	0x3f03c5f6	0.5147394
246	0xbe7292e9	-0.23688854
247	0xbdae59dc	-0.08513233
248	0xbf695582	-0.911461
249	0x3f339f17	0.70164627
250	0xbf14ae1a	-0.5807816
251	0x3e82d159	0.25550345
252	0x3ed0efbf	0.40807912
253	0xbce5b2ca	-0.028039355
254	0x3f776c21	0.96649367
255	0x3ce36d7f	0.027762173

hidden_layer.bias f4 [20]
0	0x3fbe159e	1.4850347
1	0xbfa6cb75	-1.303084
2	0x3df66688	0.12031275
3	0x3e2cf0fd	0.16888805
4	0xbfac2efe	-1.3451841
5	0x3f0b5887	0.54431957
6	0xbd99e707	-0.07514768
7	0x3e5a2ccf	0.21306156
8	0xbe9e0b52	-0.30868012
9	0xbe5b7682	-0.21431926
10	0x3f36168e	0.71128166
11	0x3fb49b25	1.4109846
12	0xbe91d30b	-0.28481326
13	0xbeeeac29	-0.46615723
14	0xbf975243	-1.1821979
15	0xbfbb891e	-1.465122
16	0xbe95fce1	-0.29294494
17	0x3e0dcdd6	0.13848051
18	0xbdb94737	-0.09046786
19	0xbf703f7d	-0.93846875

hidden_layer1.weight f4 [15, 20]
0	0x3e031488	0.12800801
1	0xbd829422	-0.0637591
2	0x3de548a8	0.11195499
3	0x3f1a6c6c	0.6032169
4	0x3fed43e5	1.8536345
5	0x3eb8034d	0.35940018
6	0x3e122706	0.14272699
7	0x3f13df7b	0.5776288
8	0xbe9676a4	-0.2938739
9	0xc04970a2	-3.1474996
10	0x401366ea	2.3031564
11	0x3f4069ce	0.75161445
12	0x3e844b28	0.2583859
13	0x3e3e1194	0.18561393
14	0xbf24eba6	-0.6442207
15	0xbef639ba	-0.48090917
16	0xbe3e5505	-0.1858712
17	0x3dfeb7f5	0.12437431
18	0xbe94c888	-0.29059243
19	0xbf6e00ac	-0.92969775
20	0xbf2dcbff	-0.678894
21	0xbf3b8447	-0.73248714
22	0x3cfe59e7	0.031048728
23	0xbbc63548	-0.006048832
24	0x3e97a942	0.2962132
25	0x3f02cec1	0.5109673
26	0xbe593bd8	-0.21214235
27	0x3ccf96be	0.025340434
28	0xbcadd3cf	-0.021219162
29	0xbfebdbd3	-1.842646
30	0x404274b5	3.0383732
31	0x3f3c6827	0.73596424
32	0xbe816a56	-0.2527644
33	0xbed6e10a	-0.41968566
34	0x3f4743f2	0.7783805
35	0xbe08f3d9	-0.1337427
36	0x3dd261b6	0.10272543
37	0x3d335d0a	0.0437899
38	0xbee49c87	-0.4465067
39	0xbbd5e2c1	-0.0065272753
40	0x3ff0cd74	1.8812699
41	0xbe0608a2	-0.1308923
42	0x3cecdfa2	0.02891523
43	0x3e55b3ef	0.2086942
44	0x3e8e23f2	0.277618
45	0xbedbbf05	-0.42919174
46	0x3c502d2d	0.012706083
47	0x3f835534	1.0260377
48	0xbe9709e4	-0.29499733
49	0x3f3b6004	0.73193383
50	0xbe0afb82	-0.13572505
51	0x3eec38f5	0.46137205
52	0xbec55653	-0.38542423
53	0xbf455cd4	-0.7709477
54	0x3f24b8a1	0.6434422
55	0x3fe057df	1.7526816
56	0x3cf8f825	0.030391762
57	0x3e0ffbf9	0.14060964
58	0x3f5308b0	0.8243513
59	0x3f89fef7	1.0780934
60	0x3c3cc701	0.011522056
61	0x3f9967bc	1.1984782
62	0xbc0afb47	-0.008482761
63	0x3d8f1440	0.06986284
64	0xbf271301	-0.6526337
65	0xbf4ceef5	-0.8005212
66	0x3da8b9c5	0.08238558
67	0xbddb96a0	-0.10722089
68	0xbd6d44ef	-0.05792707
69	0x4018ea3e	2.389297
70	0xc05c86a2	-3.4457173
71	0xbf0bf1f4	-0.54666066
72	0x3f1f9022	0.62329304
73	0x3c6768b9	0.014124089
74	0xbeab601f	-0.33471772
75	0x3e4e954b	0.20174138
76	0x3ddd080b	0.1079255
77	0x3e10fa0d	0.14157887
78	0x3e7d37d9	0.24728335
79	0x3ed550c1	0.41663173
80	0xbff3a3eb	-1.9034399
81	0x3e19ae5a	0.15007916
82	0x3e40fab6	0.18845639
83	0xbf390208	-0.72268724
84	0xbe866ea7	-0.26256296
85	0x3eb0e606	0.34550494
86	0x3dc62488	0.096749365
87	0x3f748312	0.955125
88	0xbe31d66f	-0.17366956
89	0xbfc9a140	-1.5752335
90	0xc0dfd86d	-6.995169
91	0x3f163213	0.5867016
92	0x3c1145a7	0.008866704
93	0xbed51315	-0.4161612
94	0x3e4a28e9	0.19742168
95	0xbee215b1	-0.44157174
96	0x3e1a1b5e	0.15049502
97	0x3ce5251e	0.0279718
98	0xbf9e15c7	-1.2350396
99	0x3ed101cd	0.40821686
100	0xbf060699	-0.5235382
101	0x3eabbe76	0.33543748
102	0xbdc26509	-0.09491927
103	0xbe6950f4	-0.22784787
104	0xbf1abf38	-0.60448027
105	0x3f1461eb	0.5796191
106	0xbd91c38b	-0.07117375
107	0x3c89eac3	0.016835576
108	0xbdacd36f	-0.08438765
109	0x3eca58f9	0.39521006
110	0x4069bd6e	3.6521869
111	0x3ebbcd5b	0.3668011
112	0x3f19b8ca	0.6004759
113	0x3d7a3208	0.06108287
114	0x3edfc312	0.43703514
115	0xbdfb90b6	-0.12283461
116	0xbe4ba28b	-0.19886224
117	0x3df6a321	0.12042833
118	0xbde0c544	-0.109751254
119	0xbe6185db	-0.22023718
120	0xbf208381	-0.6270066
121	0x3f5b5c6a	0.8568789
122	0xbe4564af	-0.19276689
123	0x3eb6ac1d	0.35678187
124	0xc003d0e7	-2.0596254
125	0xbea5c34e	-0.32375568
126	0xbd16cb98	-0.036815256
127	0xbf4025a9	-0.75057465
128	0x3d833b8c	0.06407842
129	0x3d559050	0.05213958
130	0xc0683c0c	-3.628665
131	0xbdc951cc	-0.09830055
132	0x3f0ad513	0.54231375
133	0xbe215e19	-0.15758552
134	0xbf21e384	-0.63237786
135	0x3ec94157	0.39307663
136	0x3dad2280	0.08453846
137	0xbcaf6c4a	-0.021413941
138	0xbef9e0f6	-0.48804444
139	0x3f043d9f	0.51656526
140	0x3f7183df	0.94341844
141	0xbf667bc9	-0.9003263
142	0xbd83ad61	-0.06429554
143	0x3ed037da	0.4066761
144	0x3ff0cb81	1.8812104
145	0x3f2462d3	0.64213294
146	0xbe423d37	-0.18968664
147	0x3e8f38aa	0.2797292
148	0xbe62dcf2	-0.22154596
149	0xbef79b61	-0.48360732
150	0xbec50c14	-0.38485777
151	0x3f2d3e9b	0.67673653
152	0x3e5e462b	0.21706454
153	0x3e848825	0.2588512
154	0x3eab2748	0.33428407
155	0xbf8e9d8f	-1.1141833
156	0x3db3374f	0.08750784
157	0x3d0def79	0.034652207
158	0x3e82e2e1	0.2556372
159	0xbe19a432	-0.15004042
160	0x3f2442d5	0.6416448
161	0x3ec60919	0.38678816
162	0x3c5d8e81	0.013522745
163	0xbfcefffd	-1.6171871
164	0x3f09c978	0.5382304
165	0xbf22af94	-0.6354916
166	0x3e60d7c2	0.21957305
167	0xbf9e7a42	-1.238106
168	0x3dc7787f	0.0973978
169	0x3f61a946	0.88148916
170	0xc0679d35	-3.6189702
171	0x3cbe1478	0.02320312
172	0xbeb7a20c	-0.3586582
173	0x3efabb43	0.48970994
174	0x3f582523	0.84431666
175	0x3ec2b9ec	0.38032472
176	0x3c374f92	0.011188405
177	0xbe07ec1c	-0.13273662
178	0xbe99d006	-0.30041522
179	0x3f22ee3b	0.6364476
180	0x4022b3e8	2.5422306
181	0x3c10add2	0.0088305045
182	0xbe78cf7d	-0.242979
183	0x3d121d8b	0.035672706
184	0x3fc056d3	1.5026497
185	0xbde33113	-0.110933445
186	0xbda1adec	-0.07894501
187	0xbe825b52	-0.25460297
188	0xbd92ae2a	-0.071621254
189	0xbfaf46f2	-1.3693526
190	0xbf73cc1a	-0.9523331
191	0x3d53c5aa	0.05170218
192	0x3f0e8cea	0.5568377
193	0x3f1290d3	0.57252234
194	0x3e4a6b04	0.19767386
195	0x3e984a19	0.29744032
196	0x3df09e97	0.117489986
197	0x3e1b8628	0.15187895
198	0x3e0f3ca3	0.13987975
199	0xbf0fc572	-0.5616065
200	0x3dc93753	0.098250054
201	0x3f333b3f	0.7001228
202	0xbdd3a7be	-0.10334729
203	0x3f862270	1.047926
204	0xbe2793e0	-0.16365004
205	0xbfa0dc5d	-1.256725
206	0xbd027390	-0.03184849
207	0xbd93f8d0	-0.072251916
208	0x3e081a68	0.13291323
209	0xc0278dfe	-2.6180415
210	0xc182f654	-16.370277
211	0x3d2493e8	0.040180117
212	0xbdfcdd66	-0.12346916
213	0xbd12114b	-0.035661023
214	0xbf9360cf	-1.1513919
215	0x3e915aaa	0.28389484
216	0xbe2c1f6c	-0.16808861
217	0x3e3803fe	0.17970273
218	0x3f6c6ee8	0.9235673
219	0xbf2ea9ae	-0.6822766
220	0x4051d023	3.2783287
221	0xbe2e389d	-0.17013784
222	0xbccda887	-0.025104774
223	0x3ea03b4a	0.31295234
224	0x3c51e111	0.012810008
225	0xbef6eafa	-0.48226148
226	0xbe0f2e71	-0.1398256
227	0xbf0686a2	-0.52549183
228	0xbcc92b14	-0.024556674
229	0x3fe58ae7	1.7933015
230	0x3fab364f	1.3375949
231	0xbdf9ac9e	-0.12191127
232	0x3e903472	0.28165013
233	0xbcef893a	-0.02924024
234	0x3dca69d0	0.098834634
235	0x3f9ba2bd	1.2159039
236	0xbe367c65	-0.1782089
237	0xbd438c3e	-0.047741167
238	0x3f5d355a	0.86409533
239	0x3f49280f	0.7857675
240	0x3f7a8597	0.9786009
241	0xc0064b41	-2.0983431
242	0xbe4a964a	-0.19783893
243	0xbf58a28f	-0.84623045
244	0x3f731990	0.9496088
245	0x3fbf5aa7	1.494954
246	0xbca62ba0	-0.020284474
247	0xc0812ed8	-4.036968
248	0xbde0a2b1	-0.10968531
249	0xbfde033a	-1.7344735
250	0x3ff956eb	1.947965
251	0xbdf415e3	-0.11918237
252	0xbe9ad08e	-0.3023724
253	0xbf8c91cb	-1.0981992
254	0xc123fd31	-10.249314
255	0x3de018af	0.10942208

hidden_layer1.bias f4 [15]
0	0x3f17253b	0.59041184
1	0x40265b21	2.599312
2	0xbfceb88b	-1.6150068
3	0x3cc41c7d	0.023939366
4	0x3fb335b3	1.4000763
5	0xbf11274a	-0.56700575
6	0x3db4547f	0.08805179
7	0xbe84c136	-0.25928658
8	0xbf0c49c1	-0.5480004
9	0xbf3ae818	-0.73010397
10	0x3d70731c	0.058703527
11	0x3f3c5667	0.7356934
12	0x3f032a3b	0.51236314
13	0xbfcf5ad7	-1.6199597
14	0x3ee2efe9	0.44323662

output_layer.weight f4 [9, 15]
0	0x3ea4f7df	0.3222036
1	0xbfd05031	-1.6274472
2	0x3ea09963	0.31367025
3	0xbec1390c	-0.37738836
4	0xc16f214d	-14.94563
5	0x3f180ebc	0.5939748
6	0xbe931668	-0.28728032
7	0x3f6010b0	0.87525463
8	0xbebd8e4f	-0.37022635
9	0xbf7d4b35	-0.9894288
10	0xc0067e96	-2.1014762
11	0x3d3da6e8	0.046301752
12	0xc1bb1b1a	-23.388233
13	0xc012d0ec	-2.2940016
14	0xbeb7206c	-0.35766923
15	0xbfcbdc8b	-1.5926679
16	0x3f3731af	0.71560186
17	0xbfa4b7fa	-1.2868645
18	0x3e97e74b	0.2966865
19	0xc0bd8f14	-5.9237156
20	0x3f45cabe	0.77262485
21	0x3eb84458	0.35989642
22	0x3ed306b9	0.41216066
23	0xbf6e7ebf	-0.9316215
24	0xbed310f6	-0.41223878
25	0x3ef457ed	0.47723332
26	0xbf619768	-0.8812165
27	0x41228084	10.156376
28	0x40769fd8	3.853506
29	0x3eaa55a8	0.33268476
30	0xbe889f02	-0.26683813
31	0x3dea4a77	0.11439984
32	0x3f8b1c75	1.0868059
33	0xbfad630b	-1.354585
34	0xbed5a692	-0.41728646
35	0xbf3661e7	-0.7124314
36	0xbe5b9744	-0.21444422
37	0x3da22b2c	0.07918391
38	0x3eac1852	0.33612305
39	0x3db81316	0.08988015
40	0x3e990df1	0.2989345
41	0x3e1a7c97	0.1508659
42	0x40e69b84	7.206484
43	0xc176e5dc	-15.431118
44	0x3eb7593b	0.35810265
45	0x3ee106b2	0.4395042
46	0xbfbe3cc6	-1.4862297
47	0xbfdd6170	-1.729536
48	0xbfb82f12	-1.4389365
49	0x3fc4b6c2	1.5368273
50	0x3ee071eb	0.43836913
51	0x3ea0dd5a	0.31418878
52	0x3f137801	0.57604986
53	0xc08a87c1	-4.3290715
54	0x3e9ad451	0.3024011
55	0x3f9d1740	1.227272
56	0xbbf1d7f2	-0.007380479
57	0x410f8b42	8.9714985
58	0x411134cb	9.075389
59	0xbf786449	-0.97028023
60	0xbe3420b5	-0.17590602
61	0x40019114	2.0244799
62	0x3e30912b	0.17242877
63	0x3e7360c9	0.2376739
64	0x402651bd	2.598739
65	0xbf029419	-0.5100723
66	0xbe7f3ecc	-0.24926299
67	0xbf871671	-1.0553724
68	0x3f8e016d	1.1094185
69	0xbe5d20e4	-0.21594578
70	0xc0a8e921	-5.278458
71	0x3f4fd578	0.811851
72	0x3db67a1a	0.08910008
73	0xc08098fa	-4.018674
74	0x3e96017e	0.29298013
75	0x3f384edc	0.7199533
76	0x3fc1d18c	1.5142074
77	0x3f98eedd	1.1947895
78	0x3ede546f	0.43423793
79	0xbfa46909	-1.2844554
80	0xbf832e77	-1.0248555
81	0xbfbf4a5c	-1.4944568
82	0xbf38b9ec	-0.72158694
83	0x3fbc0328	1.4688463
84	0xbf20b88a	-0.62781584
85	0xbfa561cb	-1.2920469
86	0x3ec499a5	0.3839847
87	0xc1b1f51f	-22.244688
88	0xc0c35a9e	-6.1048117
89	0x3f9db5dd	1.2321125
90	0xbe2df900	-0.16989517
91	0xc0106191	-2.255955
92	0xbd3f9ebe	-0.046782248
93	0xc019c8b6	-2.4028754
94	0x3f97241a	1.1807892
95	0x3dbac789	0.091200896
96	0x400ad6e0	2.169365
97	0x3eb3c89c	0.3511399
98	0xc0635b63	-3.5524528
99	0x3f7d9d8f	0.9906854
100	0x40155976	2.3335853
101	0x3f1614bc	0.5862539
102	0x412e75a2	10.903719
103	0x3fe881d2	1.8164618
104	0xc0305cd0	-2.7556648
105	0x3eb690c3	0.3565732
106	0x3e1f1c48	0.15538132
107	0xc038bbd4	-2.886464
108	0x3ebac750	0.36480188
109	0xc15aa80a	-13.666025
110	0xbe70e357	-0.23524223
111	0xbefd0b18	-0.49422526
112	0x3eceee0f	0.40416
113	0xbf156b41	-0.5836678
114	0x3eeeb3ba	0.46621495
115	0xbfcb21ee	-1.586973
116	0xbf789916	-0.9710859
117	0x3dc94825	0.098282136
118	0xc0f4af84	-7.6464252
119	0x3f0228df	0.50843614
120	0xbfcba155	-1.590861
121	0x401177b3	2.2729309
122	0xbfa4d565	-1.2877623
123	0x3f0450db	0.51685876
124	0x3fcd70a5	1.6050001
125	0x3ee795b7	0.4523141
126	0x3fcbf23f	1.5933303
127	0xbf9afb41	-1.2107927
128	0x3f0b6f77	0.54466957
129	0xbe8acbaf	-0.27108523
130	0x3eb55435	0.35415807
131	0xbdb1552b	-0.086588226
132	0x40a4cd77	5.150081
133	0x3fd06db4	1.6283479
134	0x3e22f7c9	0.15914835

output_layer.bias f4 [9]
0	0xbead3ca3	-0.33835325
1	0x3fd9cd00	1.7015686
2	0x3f852c9b	1.0404238
3	0xbf91a33c	-1.137794
4	0xbf480c52	-0.781438
5	0xbf937b20	-1.152195
6	0xbf99963e	-1.1998975
7	0xbf27770d	-0.6541603
8	0x3fff63d7	1.9952344
