best-CNN-Overfit.pt (torch, 213884 bytes, 10 tensors)

conv1.weight f8 [16, 5, 3, 3]
000000 8c 39 3e 25 84 d0 d9 3f 9d 10 cb 87 08 f4 f8 bf
       0.40335181843774914 -1.5595784477637047
000010 52 ad a5 80 2f 53 d4 3f 62 bd fc 6c 3f 29 ed 3f
       0.31757724345398686 0.9112851265580668
000020 d7 d5 fc 7b f4 34 e9 bf 49 ad 59 7a 95 27 ed 3f
       -0.7877142354615739 0.9110820188192658
000030 a6 1c 3c 11 83 4b f1 bf 8d 7a 0a fa 97 13 ec 3f
       -1.0809355424151277 0.8773918040859187
000040 eb 31 11 47 b7 98 bc bf 57 1e 7c 15 e3 68 dc 3f
       -0.11170526013410835 0.44390179727677065
000050 bb ba ce 40 29 b4 f4 3f 9c 73 74 79 50 88 f0 3f
       1.2939846545738607 1.0332798714000324
000060 34 80 79 30 cb bd d9 bf f7 04 29 cd cc b1 d7 bf
       -0.4022090886483085 -0.3702270511167422
000070 fc 7e 93 c7 43 85 f6 3f bc a3 8d e2 b5 12 f6 3f
       1.4075353427833184 1.3795679902780043
000080 82 20 b1 b4 19 98 e4 3f cd 6d 7c 7f 03 1f 93 3f
       0.6435669449938504 0.01867299523938275
000090 c3 15 86 9b 06 ea e6 bf b9 ee 4e 2e 93 9a ec bf
       -0.7160676038335442 -0.8938690094432423
0000a0 1f e3 a5 78 90 45 f4 bf 1a bd 25 42 b4 86 f8 bf
       -1.2669834816753747 -1.5328867515452829
0000b0 6b f0 43 19 ba 9d cd bf 58 a2 42 17 7f f7 d8 bf
       -0.2313759444585942 -0.39010598441612876
0000c0 d0 66 b2 76 3a 9d e1 bf 5e 5d 85 fd 8e 04 f0 3f
       -0.550442916707846 1.0011129286920872
0000d0 06 9e 7a 4a ec 73 e8 bf f9 c8 2b 5e ce 0b d5 bf
       -0.7641507582347351 -0.328845588649656
0000e0 bd 39 f3 1b f1 4d a7 3f 46 fb d4 88 bd 7c df bf
       0.045516523992421544 -0.49198854792114266
0000f0 26 d5 c6 47 35 7b aa 3f 46 8c 1c f5 8a 36 c3 bf
       0.05172125340633675 -0.1501020142396518
000100 fa f8 d8 42 d3 46 d6 bf 72 32 84 39 53 f8 e9 bf
       -0.34807282951432195 -0.8115631221167645
000110 a6 45 bb 30 ea 32 d6 3f 6b 31 b3 a7 89 4d d0 3f
       0.34685759314478515 0.25473252655935735
000120 eb 47 33 44 51 f5 e3 bf ee 10 47 19 31 cc c3 bf
       -0.6236959774053025 -0.1546689389634887
000130 66 30 2d 84 05 c1 cb 3f da 38 1a 20 9b d7 eb bf
       0.2168280501740611 -0.870069086742457
000140 73 67 5a db e2 09 d0 3f 16 44 93 fa 9d 91 e5 bf
       0.250603403293659 -0.6740255254791261
000150 72 fb bf c9 9a 5a eb bf c9 39 54 3a ec ee e0 bf
       -0.8548101368358927 -0.5291653765905774
000160 37 19 b5 b3 f0 87 e0 bf 97 7d 5e 56 eb dd e0 3f
       -0.5165942678366154 0.5270897566696701
000170 e8 e5 75 26 30 03 de 3f 8f f3 79 f2 e8 19 a0 bf
       0.4689445853797154 -0.031447677230040154
000180 b8 3c 20 b7 17 c7 ba bf 0a 4f 23 8c ad 9d e0 bf
       -0.10460041256759467 -0.519247792918095
000190 c8 35 12 61 f7 f0 ce 3f b9 cb fe 5d 8c 4d da bf
       0.24172870864678786 -0.41098317317226535
0001a0 8c 65 9c fa 0a 29 e7 bf e0 54 d0 fd 49 15 ee bf
       -0.7237601179833049 -0.9400987584400831
0001b0 31 76 4f 24 ac 14 d1 bf 9d 16 1c 55 11 8f fd 3f
       -0.2668867449372981 1.8474286388967933
0001c0 dc ea 45 74 89 b3 e6 3f c6 6d 9c b1 07 f5 f0 3f
       0.7094161292037273 1.0598217904979363
0001d0 c4 84 af c1 78 42 02 40 9c 1d 2f 9b f6 cf e5 3f
       2.2824568874062567 0.6816361456812277
0001e0 06 30 19 b6 98 a8 cb bf 2a 9b d0 ff 9b 6a 9e 3f
       -0.21608265773318197 0.029703557480526367
0001f0 47 b7 b7 a4 81 65 e5 bf d3 18 8c ab fb 34 df 3f
       -0.668640920366422 0.48760883095418456
000200 af 32 9d 5b db 7f f6 bf 43 ec 7a 2d 1c 1e be 3f
       -1.4062150553392418 0.1176469431911054
000210 f3 42 ee 36 ec f6 dc bf 10 bb 6b b2 58 07 00 c0
       -0.45257096638037736 -2.00358714476841
000220 29 f3 05 96 a3 7e e8 3f d2 65 20 e8 f2 b5 e9 3f
       0.7654588632718503 0.8034605535241843
000230 f9 7b f3 00 e7 81 bf 3f 14 0c e0 e0 bd 7d dc 3f
       0.12307590268345327 0.4451746650740358
000240 f8 ca 5f 60 a2 91 9b bf 8a 35 a2 45 25 01 b4 bf
       -0.026922738201345248 -0.07814248037376195
000250 21 99 6a 53 17 99 cc 3f af 52 5d 9e 2e 5a c4 bf
       0.22342197011057244 -0.15900213940280625
000260 cb 7d 03 7b 75 73 c2 bf c1 67 97 47 90 10 c6 bf
       -0.14414852625394156 -0.17238048072505133
000270 fd e0 78 10 f3 bc ce bf 93 08 36 f3 93 66 9b bf
       -0.2401412802153188 -0.02675849124853664
000280 9c 2e 33 4a 93 ec 88 3f d5 05 e3 03 c8 a2 bb bf
       0.012169981672193679 -0.10795259566204803
000290 67 c2 1c b9 f1 94 c1 bf ad f7 ab 75 cd c7 98 bf
       -0.1373579172009329 -0.02419968634330132
0002a0 69 e5 2b 19 6a 6f aa bf 32 12 4a de ec 42 e9 bf
       -0.05163127476948654 -0.7894195882404971
0002b0 15 b6 59 73 e6 48 99 3f 5d b0 97 c7 01 0f 97 3f
       0.02469215468447857 0.022518184477960158
0002c0 73 fa 07 05 f1 46 b7 3f d9 65 3a 63 80 69 c6 bf
       0.09092623112517532 -0.17509465069888
0002d0 9e ad 1a 74 e0 1f c6 bf 3c f3 81 20 a9 5f ab bf
       -0.17284780186797105 -0.05346420785733705
0002e0 26 12 8e 00 e4 87 a2 bf d3 e5 1b 7d cf 66 b3 bf
       -0.036193013255829506 -0.07578751377504682
0002f0 36 e5 a0 bd 96 3b a1 bf dd 45 44 42 a9 f5 bc bf
       -0.033657751701364466 -0.11312349193419587
000300 7d ef ff 80 5c 32 c1 bf b1 06 ae e7 01 ed ad bf
       -0.1343494062310774 -0.058448848277305905
000310 06 63 3f 7c 31 d9 c2 bf 2b 2c 37 17 ec 55 ba 3f
       -0.14725321356561255 0.10287356917176342
000320 6a 99 da 58 53 13 a2 3f a0 98 6a 92 15 cd bf bf
       0.03530369243280769 -0.12422308754557543
000330 5e 57 35 d5 f2 4f 9f 3f f9 5e df 9a e1 01 bb bf
       0.030578417075353463 -0.10549745589321081
000340 80 13 52 82 78 43 8c bf f2 e8 bf 2f 6b 6f d1 bf
       -0.013800565220899008 -0.2724254576020392
000350 fd 93 b7 14 cc 24 a8 3f 5c cb 41 ac e3 5e ac bf
       0.04715574028868017 -0.05541144826647468
000360 29 40 23 92 c9 03 c4 bf 00 00 00 00 22 b7 ad 3f
       -0.15636558185224317 0.05803781747817993
000370 00 00 00 c0 60 67 a4 bf cc ed 5f 63 eb 46 91 bf
       -0.03985121101140976 -0.01687209886584444
000380 fd 49 12 fd df f2 b0 bf d2 b3 3c 9d 26 45 bd 3f
       -0.06620597771169652 0.11433640803143355
000390 e3 9f 31 0f bd 57 60 3f 00 00 00 00 b0 e3 65 3f
       0.0019949619832466555 0.002672046422958374
0003a0 d9 db d9 6b b6 c6 c6 3f 4f 03 e5 ab 6e 4e c0 bf
       0.1779392267814888 -0.1273935641602528
0003b0 17 8c bd 8e fa c8 a6 bf 33 59 f1 5a cc bc ca bf
       -0.04450209610401872 -0.20888666573109446
0003c0 9e d0 c5 7f b6 ec d1 bf 7b 1e 4f 7a 30 7e bf bf
       -0.2800728080540099 -0.12301924692212111
0003d0 49 50 74 d4 12 02 c6 bf 83 38 8e d5 a9 c4 c1 bf
       -0.17193827985522805 -0.1388141911269863
0003e0 49 50 64 6e 71 cf bf 3f 43 9f 36 12 ef bb 9e bf
       0.12425908036340262 -0.030013785826354732
0003f0 b5 5b 16 91 9a f7 b1 bf a1 f2 ad ce 0b 4e a3 bf
       -0.07018438379451093 -0.03770481965964235
000400 0f 6e 48 ee 29 8a c7 bf 1a fc f5 6a 61 28 bd bf
       -0.1839039243212572 -0.11389740811681329
000410 58 3a 28 ad 2f a5 79 bf de 97 1e ba 51 f8 d1 bf
       -0.006261049495619085 -0.28078120399220363
000420 8e 18 61 a6 4e 6d a5 bf a8 af a1 ce 01 44 a3 bf
       -0.041849572954150024 -0.037628227685530036
000430 95 cd 26 9e 38 b4 ce bf 1c cb 0f 0e c8 1f d6 bf
       -0.23987491342778058 -0.3456897866555424
000440 9a 9f e2 23 49 4f f9 bf 16 48 68 d8 4a 47 e1 bf
       -1.5818568612830632 -0.5399526812273077
000450 e2 57 66 fd c5 15 fc bf b0 58 e6 58 5e b2 fd bf
       -1.7553157709530685 -1.8560470078132703
000460 46 69 ca 87 1b 81 f0 bf b3 24 50 0e 44 f3 b2 3f
       -1.0315203956912042 0.0740244421905512
000470 8c d2 3e 8d 00 9e 85 bf 9a 51 b1 9e db 9c be bf
       -0.010555271444766555 -0.11958096145946798
000480 3f 60 ae 35 2a a7 e0 3f 09 1d ba da 95 12 e8 3f
       0.5204058693370895 0.7522687217723681
000490 63 12 33 f9 77 8e c0 3f 71 61 55 ca 30 e2 d5 bf
       0.1293477980417662 -0.34193057784206987
0004a0 03 ef f0 4c f0 72 ef 3f c7 9c 42 17 fd 53 fc 3f
       0.982780599857023 1.7705050381280658
0004b0 95 9f 30 e3 8a 5f e4 3f 91 35 dc 1a 83 28 ed 3f
       0.6366629063895625 0.9111953281987316
0004c0 f2 05 9b 4e cf 03 c3 bf b6 57 47 b2 2f a9 f7 bf
       -0.14855376566087802 -1.478805252457716
0004d0 fb a8 93 e1 38 7e da bf 6b 20 07 23 e1 ba c8 bf
       -0.4139539912126932 -0.19320310793250725
0004e0 b6 61 8f 65 e7 04 fb bf db f6 97 c8 f9 d1 d1 3f
       -1.688697239607888 0.27844090069980404
0004f0 60 4b 57 b5 de c3 5a bf c2 da 96 ba 90 d0 da bf
       -0.001633613098751062 -0.41897981855019506
000500 78 ef 85 ff 84 7b d9 3f 0f d7 f8 39 69 95 c9 3f
       0.39816403344570217 0.19987216311135866
000510 d8 19 d2 4f c6 81 c4 bf 02 47 c0 a8 3f 61 c4 3f
       -0.16021040818686916 0.15921779384421347
000520 fb 35 80 c0 8c ce b7 bf 85 84 12 5b 5d 89 b8 3f
       -0.09299545001723424 0.09584601853795689
000530 1c ea 16 36 52 68 ad 3f 75 5b 2c 4f c7 bc d4 bf
       0.05743653211853347 -0.32402212840809536
000540 1f a9 86 41 46 58 a5 3f 0c 56 74 4f 2f be c4 3f
       0.04168910550954962 0.16205397967921475
000550 60 01 21 bb 01 fc b2 3f 22 a7 9c a7 39 cd b8 bf
       0.07415781801774335 -0.09688148824775714
000560 4b f5 08 f0 a5 73 a5 3f 64 51 ff 53 bf c5 c3 bf
       0.041897950698038665 -0.15447227097923666
000570 ec b2 4d cc ff ad 91 bf 0b b8 53 43 6c 8d a7 3f
       -0.01726531681508707 0.04600084611762164
000580 fa a8 29 4e e6 7b c0 bf 9d c4 75 d8 46 1e 87 3f
       -0.1287811166433313 0.011288217049442212
000590 f0 90 56 c5 e4 fa aa 3f b1 00 c0 7e e7 7d b3 bf
       0.05269541653550103 -0.07613989681704215
0005a0 6a 88 35 86 ef 40 c2 3f fc d9 24 52 ea e7 b3 bf
       0.14260667851619085 -0.07775749688594397
0005b0 08 62 17 c5 fa d7 c3 bf 60 33 45 2b 3f fb c6 bf
       -0.1550286733970696 -0.17954244244392736
0005c0 a8 fe 37 45 b5 df be bf 5c aa 30 67 32 fb bb 3f
       -0.12060101451788319 0.10930171031274355
0005d0 fb 02 f2 8e 53 30 81 bf 26 4c f7 55 b0 85 c4 bf
       -0.008392956542822008 -0.1603298587566268
0005e0 e2 75 db eb 4a 9d bb bf c7 09 f5 ae 05 73 c3 3f
       -0.10786884554132528 0.15194769900160862
0005f0 17 d3 3e 34 85 87 ca bf 4f 18 94 54 50 3a c1 3f
       -0.20726075221104942 0.13459209565934535
000600 fa 0c 78 83 aa b6 b4 bf de 0b f7 ff cf cd af bf
       -0.0809122630089866 -0.062117099757891245
000610 5a 69 e6 43 7d 29 bb 3f f3 f1 8a 55 8d ba 8d bf
       0.10610182674137061 -0.01451597611718911
000620 ed 72 48 87 66 85 9a bf 5a 0f 7f 06 f4 20 b8 3f
       -0.0258995075292771 0.09425282629586942
000630 00 00 00 c0 65 c2 a4 bf 00 00 00 00 3f 90 9f 3f
       -0.04054563492536545 0.030823692679405212
000640 4b fb 07 4f 70 e3 b1 3f e0 b4 b3 41 b1 fe cd bf
       0.06987668923828243 -0.23433509548286846
000650 4b c7 a2 97 a5 9d ae bf 89 97 e2 5a c3 ba b0 bf
       -0.0597964999773369 -0.0653497788321983
000660 00 00 00 c0 38 72 ab bf 00 00 00 00 0a 93 b8 bf
       -0.053605817258358 -0.09599363803863525
000670 28 65 2c 09 fc f2 6f 3f 3e ce 79 fa bd 99 89 bf
       0.003900043733108167 -0.012500271040358443
000680 02 ab 44 01 47 0c c6 bf 54 06 d1 62 fe 26 9d bf
       -0.17224967538762576 -0.028469061642914475
000690 13 26 2d b7 2b 99 b5 bf b0 54 c6 ae 56 8b d0 bf
       -0.08436845037535816 -0.258504553488204
0006a0 7c 07 65 db d9 be c0 bf b3 a5 20 17 c7 32 b1 bf
       -0.13082431042317555 -0.06718105616223262
0006b0 33 3f e5 0c 4d c6 ae 3f 49 16 61 a6 38 b5 6d 3f
       0.06010666639724462 0.0036264521068314665
0006c0 45 3d 19 68 56 c7 bd bf 64 91 ef 40 1e eb ad 3f
       -0.11632289926023016 0.05843443434403886
0006d0 97 8d 1b 57 63 eb b3 bf f9 8f b7 e3 bb 42 ba bf
       -0.07781048657084565 -0.10258077916620313
0006e0 40 0c 53 52 bc 4c cb bf fc c0 e7 3a 1d c2 86 3f
       -0.21327928561922427 0.011112430915972464
0006f0 af 20 41 5a af 6e 86 bf 09 7e 14 6f 06 33 d3 bf
       -0.010953302327962737 -0.29998932693158104
000700 f8 ef 97 d4 8a f9 ce bf a1 4d 89 e7 a0 a3 c6 3f
       -0.2419904268316484 0.17686854653821363
000710 e6 b5 d1 20 3d 38 c9 3f 64 df 9c 83 dc 94 b5 bf
       0.19702877142428504 -0.08430269444658972
000720 f0 2b 6e 8d e3 14 c5 3f 04 49 c1 f9 d6 5c a2 bf
       0.16469997792987057 -0.03586456106917704
000730 a4 0e b3 ba 55 89 ab bf 7a 44 0b 79 48 a9 c6 bf
       -0.05378215698285985 -0.17704111013748386
000740 05 ed d7 9b 11 a1 c6 3f 56 14 2c 60 16 2b c5 3f
       0.17679042920631374 0.16537742324740873
000750 fa 02 a7 2a d9 88 ca bf ec 24 d6 49 8f b7 b8 bf
       -0.20730127890239897 -0.0965508990540404
000760 80 f5 71 cf 6c 2a 8e 3f 34 78 25 c6 6c 8e a2 3f
       0.014729356842731134 0.03624286574152827
000770 25 8e 9f 71 11 72 c1 bf 2a 4f 81 2a 17 a3 b3 bf
       -0.13629358337412714 -0.07670731342051043
000780 bc 09 d0 a2 7b e3 b1 bf 15 d8 d8 59 10 9a cb bf
       -0.06987736439626863 -0.21563915621817445
000790 5a 1c fa 5d 1c e9 b2 bf bd 4e 09 42 6a 2e c5 bf
       -0.07386948866234047 -0.16547897552901772
0007a0 00 00 00 c0 77 0e a6 bf 00 00 00 00 96 eb c1 bf
       -0.043079130351543427 -0.14000201225280762
0007b0 72 ce 27 44 90 8c 80 bf 37 ef 03 d6 dd f9 d3 3f
       -0.008080603675785645 0.3121256437295758
0007c0 09 fe 10 39 43 3f a3 3f d0 de f1 1f 31 55 a3 bf
       0.037592030254469284 -0.03775933756781813
0007d0 00 00 00 80 4b 70 b5 bf cc fc 76 82 27 0a be 3f
       -0.08374473452568054 0.1173424428479734
0007e0 78 82 47 c3 79 15 bb 3f 00 a7 2b c7 9f 89 d0 bf
       0.10579644219934348 -0.2583999104523258
0007f0 7c 4c 2f 57 6a 2a b4 3f 52 2e 96 a5 97 46 78 3f
       0.07877220753225517 0.005926697130586316

conv1.bias f8 [16]
000000 9b db a3 ae dd b4 b6 bf 55 3b aa 19 b1 15 a6 bf
       -0.08869729531930519 -0.04313424528401436
000010 0a fb 7c 34 00 51 d2 bf 4b 80 d3 22 c4 cd a0 3f
       -0.28619389653970073 0.032819871188394766
000020 9d 58 9e f1 f8 0f c8 bf 6c 45 d2 a9 31 2c ce bf
       -0.1879874400880838 -0.2357236937719266
000030 47 76 78 b7 86 26 c2 bf 0d 81 f1 e7 e9 a9 c0 bf
       -0.14180072744868452 -0.1301853544746411
000040 c2 ae ed e3 b2 42 b7 bf cf a5 83 64 5e d0 d6 bf
       -0.09086149277362224 -0.3564678174576245
000050 4d b3 5b 1e a6 98 82 bf 80 11 2f fe b6 63 cd bf
       -0.00908021717210663 -0.22960555468865707
000060 ed 60 1b 71 16 04 9d bf 25 8f b8 11 77 2c d1 bf
       -0.028335905698299624 -0.26833893518981916
000070 38 2c 83 ac 80 2f a6 bf 02 00 5a 33 f8 99 bd bf
       -0.04333116632332018 -0.11563063863468417

conv2.weight f8 [32, 16, 3, 3]
000000 c9 04 06 0f a8 20 e2 3f 57 fe 7b a2 52 1b e4 3f
       0.5664863866260471 0.6283353017351584
000010 76 29 1e 9e 33 ed cb bf 79 d4 56 4e e9 d1 d4 bf
       -0.21817631931873976 -0.3253119721442271
000020 d4 69 18 9c a6 06 ef bf c8 67 df 84 b3 e0 e0 bf
       -0.9695618675935358 -0.5274293513459662
000030 62 12 fc b4 bc 02 d0 3f 6f 2e b3 ec 5b 05 ed 3f
       0.2501670615604664 0.9069041846318678
000040 59 35 29 df 52 bf ed bf 97 6e be cf 5e 64 c9 3f
       -0.9296049460041714 0.19837556022399802
000050 80 ec 21 7a 8b 80 e6 3f 6a 38 35 08 4f dd e2 bf
       0.7031915078545268 -0.5895152244863884
000060 00 eb 9e 5b 62 6c f3 bf b2 ce 0c 68 32 1d d2 bf
       -1.2139609888969858 -0.2830320373643459
000070 bc 7e 0a ac cf 0b d1 bf 6d b9 0b 74 28 ab f0 bf
       -0.26634589959028765 -1.0417866261519422
000080 f2 d7 30 4f 99 8a bd bf 2b eb e0 e7 15 99 df 3f
       -0.11539610083931942 0.49371860165017506
000090 d0 9e 0c 0c 44 fd b8 bf 22 55 a8 1b 75 46 c5 bf
       -0.0976145295541031 -0.16621269083467732
0000a0 8d f8 72 8c 0e 8b bc bf ce 9f 9b 2d ed 46 b1 bf
       -0.11149683884556989 -0.06748850215410515
0000b0 46 05 86 f8 ee 35 c9 bf 35 9b a4 8a e6 fa b2 bf
       -0.1969584191793194 -0.0741409386142607
0000c0 97 c2 58 5c 5e e9 c7 bf d1 ff 3f 2d d8 77 b9 bf
       -0.18680934437863492 -0.09948493103729496
0000d0 c3 6c 17 73 1d 7a c3 bf 98 f1 e0 cc 93 61 fb bf
       -0.15216415519430457 -1.7113225939820946
0000e0 a7 5a f0 71 c0 a4 fe bf 51 0a 6a a1 0e 09 e3 bf
       -1.9152225924241664 -0.5948556091901286
0000f0 4c c1 13 10 b4 53 e0 bf 59 66 93 d7 ad 63 e2 bf
       -0.510217696572036 -0.5746678553070509
000100 b3 37 cb 32 7b b3 ab 3f 70 fb eb c3 2f 15 d5 bf
       0.05410370821992618 -0.329418126420868
000110 63 4d 11 12 77 90 ef bf 8d 8e 95 9a cf 35 da bf
       -0.9863849022753296 -0.4095343598948851
000120 9d 7e 8a cf a2 53 c5 bf 07 fc c5 48 3a 80 ac 3f
       -0.16661486753308888 0.055665799506634576
000130 23 74 20 a8 a3 34 c6 bf 74 d6 8b f2 6c 0c c7 bf
       -0.1734814234668259 -0.18006669848516632
000140 cd e8 61 35 70 ea a9 bf ed 9e 21 fc 34 9a c8 bf
       -0.05061674739495601 -0.19220602332210693
000150 13 4b 72 5f a0 f9 b3 bf 4b de 90 60 e8 ef c9 bf
       -0.07802774744258682 -0.20263390269404832
000160 f3 ec 52 34 7a 1e c6 bf 75 2e 51 6d 0b cb b9 bf
       -0.1728050952423029 -0.10075446528315431
000170 58 ed e8 52 e4 7f a3 bf 0e c9 ae e1 c5 39 b0 bf
       -0.03808511268695253 -0.06338154563744444
000180 e5 94 d1 6e bc 28 c7 bf 57 d8 ac d3 cd c6 a8 bf
       -0.1809306660754039 -0.048391754235510724
000190 a5 4d 75 ae 16 61 c6 bf bf e6 e7 36 f1 ae af bf
       -0.17483790892093257 -0.06188157840001684
0001a0 f8 b2 4b 15 b7 21 c1 bf d7 5b 9c 35 41 03 b5 bf
       -0.13384140529469568 -0.08208091315132947
0001b0 d1 b9 a8 0c 92 5a e3 3f a2 5d ed 2e d9 11 d0 bf
       0.6048059699294815 -0.25108937819228505
0001c0 8d 9d d4 a2 85 14 f9 3f ca fa 2b bb 78 bf b6 bf
       1.5675102577750721 -0.08885912484764016
0001d0 2f cc 7f 2f a7 0d cf bf 9b 5b 88 61 4f 40 a0 3f
       -0.24260415858552295 0.03174064698776321
0001e0 d9 8f af e7 c6 bf d1 bf c7 38 ed 53 ff e5 d0 bf
       -0.27733013749661733 -0.2640379256817024
0001f0 2d cd cd 5e 7a b7 c0 3f ee b6 30 ca d0 17 c8 3f
       0.1305993044767119 0.18822679398129288
000200 1e 2d e5 7a 7f 0d cb 3f 6e 9b 09 57 83 d9 fe bf
       0.21134942532294415 -1.9281037712005076
000210 f4 54 71 9e ca 54 f2 bf f0 30 c3 c1 d6 1f aa 3f
       -1.1457010449569767 0.05102416148437949
000220 90 99 f1 47 a8 9b f4 bf 87 61 f1 0b 61 3d e3 3f
       -1.288002282171508 0.60124256451222
000230 bb 6b ba 42 90 9a e6 3f a1 f6 59 f7 46 92 df 3f
       0.7063676169667511 0.49330305247699796
000240 f0 6f 42 7a 8c 3d bf bf 29 58 77 5b 2f a5 a3 3f
       -0.12203290924884391 0.0383696364548743
000250 d8 a6 ad 0f 7c 26 c7 bf 8d 30 72 51 d7 ea be bf
       -0.18086195722144427 -0.12077089060238873
000260 ac 4b f8 9c b0 ae c1 bf 17 f7 08 f8 07 5e a8 bf
       -0.1381436125235188 -0.047592400577270925
000270 2c 06 3d 3e b3 9f c5 bf 71 03 1a 38 db 19 b0 bf
       -0.1689361623667066 -0.06289453620594344
000280 f4 25 bb 26 4b e9 c3 bf a0 ad d5 bd aa f8 cf 3f
       -0.15555705443539092 0.24977621335288536
000290 36 71 97 68 39 c1 e7 bf e6 23 a7 a4 2f 95 ff bf
       -0.7423369448475003 -1.9739223891976905
0002a0 93 23 82 7d 5b f4 ec bf 60 19 bd 11 8f f4 d1 3f
       -0.9048287822089257 0.2805516885022339
0002b0 7d f7 49 bd 10 ef c1 3f d3 54 b7 6c 6e 12 01 c0
       0.14010819666503585 -2.133999680847958
0002c0 ad c9 86 6f 56 8c 03 c0 cf 6c c5 7d 5a 27 f1 bf
       -2.4435242379197093 -1.0721077835976762
0002d0 0b bc 78 6d 47 e3 e8 bf 1a 68 b4 19 f6 01 c8 3f
       -0.7777440202825131 0.18755985503304445
0002e0 4e 3d 28 46 43 77 dc bf b1 84 57 9d d6 00 eb bf
       -0.44477922297752037 -0.8438523362239235
0002f0 00 e9 90 66 4d 1a d1 3f b3 fd f7 e3 8a 88 fc bf
       0.2672303678151735 -1.783335581305306
000300 e3 af 55 2e 01 5a d7 3f fc 04 7b bb 79 3d e6 3f
       0.36486844563364523 0.6950043355683699
000310 2c 6f 94 e5 24 42 bc 3f 2b fb 46 48 e6 2b e5 3f
       0.11038427929855449 0.6616088306107931
000320 a7 65 a9 eb 90 8f e7 bf 33 37 1a ef 28 e8 e4 bf
       -0.7362751581924173 -0.6533398313492625
000330 c5 ff 8b 5f 5f 0a d7 3f e6 30 c4 a7 bc 7b e1 bf
       0.360008090312473 -0.5463546063124596
000340 fb e1 42 0b e8 2f e0 bf 55 88 83 e1 26 2a f3 bf
       -0.5058479518839357 -1.197790985978391
000350 4c ae 8e 7b 64 a8 cf 3f 5b 51 92 26 1d 60 e8 bf
       0.24732643158982837 -0.7617326501227056
000360 6f 72 3f 1c ff 0d b3 bf c4 f0 2d 5d 2e a0 c3 bf
       -0.07443232001919296 -0.15332583951738432
000370 d5 53 55 82 ff 60 c5 bf ba 46 92 5f 84 5e c8 bf
       -0.16702264656001256 -0.190384432473868
000380 0e 0a d4 d3 a1 5b b2 bf 99 2e de eb c4 09 c0 bf
       -0.07171069547261075 -0.12529813305842621
000390 08 ef bb d0 b2 a5 b5 bf b4 4b aa 1f d5 d4 b8 bf
       -0.08455960842178112 -0.09699756644322016
0003a0 ce 13 65 fe c8 0b b6 bf ed 90 82 01 ee 8a b1 bf
       -0.08611732683955539 -0.06852614914766138
0003b0 47 0b 8a 53 a9 3f c2 3f 03 52 0c 57 1f 49 a6 bf
       0.1425677926927966 -0.04352662980651092
0003c0 8b 4f c2 5f 87 e7 c0 bf 4a 79 6e 34 54 f8 ae 3f
       -0.13206569839223578 0.06048834934266496
0003d0 2b b0 4f ca 8e cd ab bf 27 0b 45 9a 31 4d c2 bf
       -0.05430265636081829 -0.14298076660824074
0003e0 97 e1 d1 24 d0 ea b7 3f ec be 1c 56 e6 ef c4 bf
       0.0934267129795273 -0.16357115940763067
0003f0 5f 74 9c 18 76 b7 f1 3f ab 7e ac 8a c6 6d f0 bf
       1.1072903596280168 -1.0268006722398393
000400 dc a7 c8 92 a0 7a ea bf 1a 79 af 09 11 5b 8e 3f
       -0.8274691454764667 0.014822133167339536
000410 0a ba 16 62 8b bf 5a 3f ac ec 58 06 bc c2 df bf
       0.0016325818217911591 -0.496260648916812
000420 2c 11 cb 70 6f 45 01 c0 ee 3e 4a 5a 7e 9c f0 bf
       -2.158903962323299 -1.038206436820413
000430 41 c1 40 2c 82 bb 07 c0 0d 81 15 84 da e1 e3 bf
       -2.9665568787824275 -0.6213200168386109
000440 d6 ae 2d 2c 49 25 eb bf f0 95 5d 88 5f 3f 01 c0
       -0.8483014929638226 -2.1559439328727805
000450 6b 24 68 6e 43 b5 f8 bf e1 d4 15 0d ce e1 02 c0
       -1.5442537606016014 -2.360256292561289
000460 71 35 b1 e2 31 a2 c7 bf 8e fa 0f ed 77 98 f3 3f
       -0.18463729447322977 1.2247237453699742
000470 cf 35 92 5b 1d 8c e9 3f d2 f6 5c fe 0b 17 c9 3f
       0.7983538425921156 0.19601583404612782
000480 a8 41 20 04 11 7a 00 40 37 2c ce a5 76 a7 ce bf
       2.059602768167867 -0.23948557945218038
000490 25 38 06 1e be a5 d3 bf 99 ff 81 d9 1b 86 fd bf
       -0.30699112827358227 -1.8452414032362638
0004a0 12 41 74 e7 7a 39 cc bf bf 9e b8 f2 f6 55 e0 bf
       -0.2205041532656727 -0.5104937306068321
0004b0 5d 47 32 4c 8c f8 e5 3f 1e af f6 fd 90 cc d6 3f
       0.6865903366290059 0.35623574067243335
0004c0 ff c6 de a2 46 e0 da 3f c4 fa 56 18 bf 94 bc bf
       0.4199387159852534 -0.11164469093544499
0004d0 5b c6 bb 2c ae 32 d2 3f 94 70 cf 42 7b 2b c1 bf
       0.2843432843065778 -0.13413944971296543
0004e0 94 db ae 98 9d 39 cb bf bf 29 9c 16 99 41 d4 bf
       -0.2126957889101645 -0.3165037842560671
0004f0 7f f2 70 0a 6d 7d c4 bf 73 0c b1 41 bc 31 cc bf
       -0.16007769594024876 -0.2202678032645938
000500 78 4a f8 5f bc e6 63 3f 28 ce cd a8 41 cd e3 bf
       0.002429359359447599 -0.6188057228995989
000510 7f 2c b9 19 1b ef bf 3f 69 64 c0 0b d3 1e a0 3f
       0.12474221590052713 0.0314851714940197
000520 70 bc 4c 96 f2 25 a9 bf 0e 97 f3 db af f6 c6 bf
       -0.04911764225686788 -0.17940328826733104
000530 42 f2 b0 6f 1e 99 cc bf f8 dd ae d5 cd 83 ba bf
       -0.2234228177420779 -0.10357367007133422
000540 d6 c4 84 67 ba be bf bf b6 0b c9 79 ec 50 ac bf
       -0.12400403048811212 -0.05530489908826246
000550 da c7 f7 7d 93 b0 94 bf bf 4e f5 b2 37 4e e8 bf
       -0.02020483452174191 -0.7595480437543854
000560 72 9d d9 bb 95 59 a3 3f 6b cc 85 80 e3 bc f2 bf
       0.03779285352794205 -1.171115400354007
000570 cb 32 af fa 2a c2 e3 bf c1 97 d7 12 40 94 ee bf
       -0.617452134721668 -0.9555969589243817
000580 e9 d8 3e 6c 99 11 e3 bf cd 3b 6f af 33 f3 ef bf
       -0.5958983530206555 -0.9984377314048004
000590 1a 3e 01 f7 37 93 a0 bf 6e 87 14 57 05 78 f0 bf
       -0.032373188878974626 -1.0293019677705746
0005a0 19 5c e2 48 5c ad b4 bf 15 2c d9 21 c9 a7 83 3f
       -0.08077027110481118 0.009597369523495694
0005b0 56 c0 a6 a1 d0 a3 97 bf 5d 3f 0d fa e0 93 b3 bf
       -0.02308584200517346 -0.07647520165232664
0005c0 8b d5 ed f7 ce 6a 75 3f 34 54 78 cf 98 f9 ab 3f
       0.005228813620182913 0.054638648343975055
0005d0 59 d1 9b 8e 96 7e bf bf 4e 2b e9 2f ac 55 65 3f
       -0.12302533132225814 0.0026043284445100073
0005e0 85 e0 2b db 11 d7 b0 bf 7f ac 57 81 57 e6 a7 3f
       -0.06578170395721557 0.04667924360168118
0005f0 5a 10 5d 9a d4 14 c6 3f e8 71 16 2e 98 60 a8 3f
       0.1725106958130052 0.047611957193314514
000600 48 d5 08 f3 b4 49 c6 3f d5 12 df 32 eb d0 b8 bf
       0.17412435404700433 -0.09693784706093862
000610 a7 1e a6 42 cb e2 a8 3f aa 97 8c e5 8f c7 cd bf
       0.04860530079446095 -0.2326526518674517
000620 ac 11 be 84 ac 82 b7 bf 97 f0 73 91 9a 14 5b bf
       -0.0918376754835381 -0.0016528615431630528
000630 e8 26 0d 0b 82 a7 e9 3f ae 2f fc f0 8f ec ca 3f
       0.8016977516028563 0.21034430758333883
000640 ad 29 3f dc 07 37 02 c0 e4 fa 6b 2c 49 59 e2 bf
       -2.2768704611564403 -0.5733991496670936
000650 a8 6a 0b 0b 38 3a fe bf 9d 58 4a f3 fe b2 ee bf
       -1.8892136031560458 -0.9593500854268943
000660 95 7d 68 86 d6 8d fa bf 86 cb 7e 61 fa c8 12 c0
       -1.6596284151381486 -4.696267627109483
000670 24 5e 3c d2 41 d3 d8 3f 33 6d b8 1f 4f 58 d7 bf
       0.3878941109737488 -0.36476495835968875
000680 dd 24 1a 68 3c a8 e5 3f e7 57 7a 3b 51 31 c6 bf
       0.6767866166348103 -0.17338004497713586
000690 2a 40 28 46 64 2b d5 bf 0d b5 ee 5a b2 f8 e8 bf
       -0.33077341891567136 -0.7803584838890473
0006a0 3e 2f 95 8c 14 a5 fa 3f df b5 76 e8 bd 73 e2 bf
       1.6653028003228907 -0.5766286411578071
0006b0 5e 65 7f 5a 03 d5 eb bf 05 f0 19 0d c9 d1 cd 3f
       -0.8697525756389657 0.23296464099610162
0006c0 44 aa 6f 48 c4 77 76 3f c6 78 1a dd 43 25 8c 3f
       0.005485312204636165 0.01374295252327008
0006d0 58 32 50 14 d2 9c 95 bf 05 0e b6 80 0a ff 72 bf
       -0.021106035699676035 -0.004637757326580343
0006e0 1b 30 93 89 d1 c9 b5 3f 60 9f 42 0f b3 bd c2 3f
       0.08511075600398536 0.14641416783455963
0006f0 80 08 1f 75 4d dd b3 bf a2 7c f5 72 84 0a c5 bf
       -0.07759555920987005 -0.16438346493939543
000700 61 02 a6 3a df 98 ab bf 55 20 c0 42 e1 79 f0 bf
       -0.05390069571422341 -1.0297558410111567
000710 0f 4b 12 c5 70 31 e0 3f 71 59 d3 ce a1 45 d8 3f
       0.5060352181484137 0.3792500037938203
000720 b9 15 ae 32 63 66 a4 3f 40 f8 21 35 5f fa e2 3f
       0.0398436545720346 0.5930629766223845
000730 d1 a6 ff 74 78 d2 cb bf 58 d2 07 98 b7 2c 02 c0
       -0.21736055100273302 -2.2718345525156955
000740 b3 29 93 18 81 eb c6 bf 60 65 2f 3e c5 7c d4 3f
       -0.17906202030128568 0.32011538574950826
000750 26 c8 2e ed 46 9f f1 bf 37 83 8b a1 4e 2b c6 bf
       -1.1013860001517144 -0.17319662940919908
000760 fb 5d ee 4f e2 e6 b7 bf e9 4b 83 22 c9 cf da 3f
       -0.09336676074450871 0.4189322316207709
000770 40 66 d2 4a 20 20 f0 bf 1f e3 19 6a 17 d5 d6 bf
       -1.0078432963113215 -0.3567560707229393
000780 fb c9 57 2b 74 ea df bf 58 a5 28 9e e3 e9 e9 bf
       -0.49868492348392096 -0.8098009194410833
000790 a4 0d 59 96 56 e2 e8 3f 2d 92 4b 35 b5 08 d3 3f
       0.7776291786653258 0.29740648464783953
0007a0 16 40 2f 5e f6 dc d5 3f 05 fd e1 d4 2e c8 e9 3f
       0.3416114730616767 0.8056863935343307
0007b0 87 d8 23 c6 35 2e df bf ef e4 51 60 d2 ba b1 bf
       -0.48719543790446845 -0.06925692416725203
0007c0 a3 1e fa f8 ae 9b 92 bf 0c 8a ea 83 f9 ef f3 bf
       -0.01817201037059014 -1.2460875657058095
0007d0 f1 24 92 17 5e 7a f8 bf c1 0e 52 55 f8 82 d8 bf
       -1.5298748894440986 -0.38299377758105996
0007e0 2d c1 0a 81 54 52 c2 bf d9 47 10 8a dd 13 a9 3f
       -0.14313751507644082 0.04897968588205943
0007f0 e9 ce 14 2f ab b0 ae bf 63 21 a4 a3 e3 ed ba bf
       -0.059941625115610915 -0.10519240136284717

conv2.bias f8 [32]
000000 a8 79 18 9f 8d 6e c9 3f 78 1d 8f f1 d4 82 db bf
       0.1986863161882415 -0.42986034002065976
000010 ac 00 28 21 f2 19 e3 bf ca 58 b8 4d ee e5 ac bf
       -0.5969172141631325 -0.056441733348195536
000020 18 7d ae 41 74 2a bb 3f 76 34 3a 8d 62 26 c9 bf
       0.10611654857210728 -0.19648391624324163
000030 ed f5 1c 93 fe c3 d5 bf 38 a7 74 35 e5 0f d1 bf
       -0.3400875507976185 -0.2665951749828426
000040 7c 60 15 d6 1b b3 d3 bf 9a ea 69 38 dc a6 c6 bf
       -0.3078069296511854 -0.1769671702821441
000050 e7 7c 1d 3a 78 f2 e2 bf fb 39 e0 12 c1 6d bc bf
       -0.5920983443319557 -0.11104971609913854
000060 08 e4 9f e4 70 0a e3 bf dd c9 f2 ab 71 5a d1 bf
       -0.5950245347331711 -0.27114526550135826
000070 98 72 a9 d0 0d 27 d2 bf 2e 8c 7b 47 c8 06 d9 bf
       -0.28363366486682073 -0.3910389612266866
000080 e9 66 c3 ee 85 c8 d2 bf f0 6c 52 c1 5b 11 bd bf
       -0.2934889632866616 -0.11354611844801688
000090 81 a1 cb 51 8d 05 c3 bf ba 08 f0 50 6b 2b c7 bf
       -0.14860693448941834 -0.18101254894287938
0000a0 3a 8a 61 db 8c 6b d8 bf f0 76 6f 90 41 a8 d3 bf
       -0.3815643446343163 -0.3071445379735982
0000b0 ad 94 a9 ff 64 e7 c1 bf f6 c5 64 91 bf e1 da bf
       -0.13987410052792396 -0.4200285835132428
0000c0 76 31 18 27 39 66 b2 bf 41 84 68 72 34 0a d1 bf
       -0.0718723030515259 -0.266247855879616
0000d0 63 16 08 5e 52 db e0 bf fd 89 b5 58 e5 99 bd 3f
       -0.5267726742319606 0.11562951484442148
0000e0 af cb 42 ca 22 5c ba bf 59 27 cf 91 d9 6a 97 bf
       -0.10296838224421266 -0.022868537449347446
0000f0 6e 94 2c fa c4 a2 d1 bf 03 7c 35 e3 90 07 b9 bf
       -0.27555965834682794 -0.09777169749348506

fc1.weight f8 [64, 288]
000000 00 00 00 a0 50 7d a3 3f 00 00 00 40 f6 f9 9b 3f
       0.03806545212864876 0.02732071653008461
000010 00 00 00 c0 4d 0c 91 3f 00 00 00 20 f0 04 a9 3f
       0.01664849743247032 0.048865798860788345
000020 00 00 00 a0 d8 7d ad bf 00 00 00 80 cd cd ac bf
       -0.057600755244493484 -0.05625765025615692
000030 00 00 00 80 af 15 82 bf 00 00 00 c0 53 d4 99 bf
       -0.008830424398183823 -0.025224026292562485
000040 00 00 00 c0 a8 b3 94 3f e8 f2 25 a5 cb da b5 bf
       0.020216595381498337 -0.08536980421008489
000050 19 2f e7 f7 83 94 c1 bf ef 57 dd e7 b3 ae e1 bf
       -0.13734483341829032 -0.5525760201078337
000060 00 de a4 e5 b3 19 c2 bf ba be b2 c6 f6 cf c4 bf
       -0.14140938485228105 -0.1625965566831747
000070 34 58 50 5e 07 ea c6 3f 9b b2 cb 56 23 d1 c4 bf
       0.17901699166458374 -0.1626323865706539
000080 26 45 c0 2d ed ed ba bf f6 61 a1 23 e1 57 c6 bf
       -0.10519296996087188 -0.17455686797872233
000090 47 18 f7 66 40 35 da bf a1 4b df 1c 9f 14 da bf
       -0.4095002179641409 -0.40750863856845326
0000a0 69 76 49 62 a2 65 db bf cb bc 9c 4c 48 82 da 3f
       -0.42807826612793193 0.4142018078009186
0000b0 3c 8f d1 b5 27 68 e0 bf 57 26 fe 1e 87 38 d6 bf
       -0.512714247812688 -0.3472001841224474
0000c0 14 6e e4 ff b9 ca d5 bf 69 b8 da 07 2a e3 e0 bf
       -0.3404984473179138 -0.5277300027280606
0000d0 c2 41 54 9b dc 50 e2 bf 00 00 00 00 0a 9b a6 bf
       -0.5723708184978522 -0.04415160417556763
0000e0 00 00 00 00 3d b9 89 bf 00 00 00 e0 6b 83 9e bf
       -0.012560345232486725 -0.02979820780456066
0000f0 00 00 00 c0 a9 c3 97 3f 00 00 00 20 df 99 a9 bf
       0.02320733293890953 -0.050002072006464005
000100 00 00 00 60 ab 53 a6 3f 00 00 00 c0 ad ee 9f 3f
       0.04360709711909294 0.03118392452597618
000110 00 00 00 20 bb a5 a5 3f 00 00 00 c0 5d 64 92 bf
       0.04228005185723305 -0.017960991710424423
000120 0c 15 e1 7d 72 35 c9 bf e4 87 78 c0 ae 1e d9 bf
       -0.19694358011671687 -0.3924977187726866
000130 2f 45 fe b1 46 dd d5 bf c9 17 02 42 36 3f dc bf
       -0.3416306246009126 -0.4413581509219254
000140 12 0d dc 17 dd 8a de bf 4f 1d 23 19 3a d9 cd bf
       -0.47722556428944174 -0.233191740297324
000150 d6 d2 df ec e1 43 d9 bf fc 81 28 39 be 05 dc bf
       -0.3947682202554409 -0.4378505285440324
000160 bf b6 33 4a e3 21 d1 bf 0b b4 1b 29 50 c4 e4 bf
       -0.2676933502797105 -0.6489640047926754
000170 2d ae e7 cb 90 a5 e3 bf a5 18 6b f1 13 79 df bf
       -0.6139606459159431 -0.49176500869760736
000180 63 b1 9d cf dc 1d e6 bf 83 8f 51 5f bc 93 e4 bf
       -0.6911453299522176 -0.6430341588679628
000190 e1 59 4e b1 b5 86 dc bf bb 2e 0b 46 60 95 e0 bf
       -0.4457220298294527 -0.5182343833962116
0001a0 31 7a b4 c8 84 a1 e3 bf 2d 6b 65 35 3b e6 e4 3f
       -0.6134666366595579 0.6531044047254447
0001b0 23 fc 75 91 c7 5e e0 bf a4 50 73 ce 9b d3 e1 bf
       -0.5115697709114823 -0.5570811302409493
0001c0 3f ad 1e 98 81 12 dc bf e1 4e f7 d4 76 d8 dc bf
       -0.4386295304818368 -0.4507119254824215
0001d0 79 f6 18 8b 12 a3 e3 bf 56 50 b5 c3 df 61 e3 3f
       -0.6136563030956516 0.605697519533815
0001e0 75 69 6c 43 fd ba e2 bf 63 ec 6c a0 fc 1e e4 bf
       -0.5853258435120511 -0.628782571154613
0001f0 6b c1 bd 5e 31 7b e1 3f 00 00 00 00 5b 8a 77 bf
       0.5462881899275492 -0.0057471804320812225
000200 00 00 00 c0 ee c7 ab bf 00 00 00 20 c9 01 a9 3f
       -0.05425973981618881 0.048841748386621475
000210 00 00 00 60 a3 07 aa bf 00 00 00 00 f1 9f 7c 3f
       -0.05083952471613884 0.006988469511270523
000220 00 00 00 00 05 20 89 bf 00 00 00 80 0f 73 89 bf
       -0.012268103659152985 -0.01242649182677269
000230 00 00 00 80 28 4f aa bf 00 00 00 60 30 51 9d bf
       -0.05138517916202545 -0.028630023822188377
000240 3d 2c 3f 30 e0 f9 e1 bf 4d 13 c3 01 1e f3 e1 bf
       -0.5617524092025473 -0.5609273943342515
000250 0e b8 72 9b 9f 7e e0 bf 79 6a 71 6c 6b c3 e2 bf
       -0.5154569660278427 -0.5863549345043132
000260 24 53 8d 41 e2 a4 e1 bf bc 03 ae 46 f0 a5 e7 3f
       -0.5513774185479616 0.739006174131752
000270 de 5f bb be b4 64 de bf 6c fb 60 1c c1 42 e3 bf
       -0.47489660860219185 -0.6018987230562352
000280 48 7b 16 d8 16 c1 d3 3f 1d f3 77 ec cb b8 de 3f
       0.3086602316124538 0.48002908795005955
000290 83 e6 59 3a 18 5c da bf a2 7a 4a c0 7e e9 d3 bf
       -0.41187101076466365 -0.31112641123210427
0002a0 5f a1 cc b7 00 d8 dd bf 60 02 39 be 37 31 e0 bf
       -0.46630876492647205 -0.5060080256735766
0002b0 1a 1d 74 7a 51 ad d9 bf a1 5d b6 d7 1a 08 b9 bf
       -0.40120350797993043 -0.09777992025771322
0002c0 1e 3f cb 77 41 64 c3 bf 1e b2 5e 56 09 90 d9 bf
       -0.15149706219971731 -0.39941628870545454
0002d0 29 2c 65 7b 30 98 dd bf 0d ea 36 ec 60 18 e0 bf
       -0.46241390276253697 -0.5029759038509966
0002e0 71 05 96 b3 a2 70 db bf a4 a5 27 a7 c7 d8 97 3f
       -0.42874972856232946 0.02328788717014664
0002f0 29 ce 14 89 b6 f2 a5 3f 6e d6 9e f9 95 0f cd bf
       0.04286737845759731 -0.22703814209460255
000300 15 29 66 50 08 f8 ca 3f 7f 79 82 f5 90 84 e7 bf
       0.21069435048804822 -0.7349324030981704
000310 bb d0 13 4b cc 93 d5 bf 88 b2 cd 34 c5 9f bd bf
       -0.33714587528016765 -0.1157191518702324
000320 04 b1 79 44 48 79 c4 bf c4 26 eb 27 7a 3e c4 bf
       -0.15995124190829568 -0.15815665196560336
000330 45 a6 ae c6 72 e0 b8 bf 7d 48 a9 be 54 fb be bf
       -0.09717480993881462 -0.12102250723663306
000340 6c ec b1 96 48 91 c3 3f f4 18 0a 5f ce 0f c2 bf
       0.15287120206980676 -0.14110736504171195
000350 e8 d4 68 c2 57 84 aa bf 33 51 dc a6 89 70 b3 3f
       -0.051790945512417086 0.07593593906159839
000360 e4 8e de 74 b0 c3 e1 bf cc 4e 7f 8c e8 9e e1 bf
       -0.5551378519635048 -0.5506479972923102
000370 ab 2f 8b e3 dd 8f e0 bf 57 9b 5b d8 3d 83 ad bf
       -0.5175618595326247 -0.05764191881262686
000380 5e de a1 c6 b9 01 e3 bf 57 ad f5 a6 6e e1 ce bf
       -0.5939606551682564 -0.24125464584663334
000390 15 ba c3 5e 2f e4 da bf df 88 c8 78 db dc e6 bf
       -0.42017730955459004 -0.714460121064146
0003a0 e1 0a f0 f1 9d c1 dd bf 00 00 00 c0 34 da 96 bf
       -0.46494244219517894 -0.022316765040159225
0003b0 00 00 00 40 a6 67 a8 bf 00 00 00 20 29 0a a1 3f
       -0.047665782272815704 0.033280644565820694
0003c0 00 00 00 20 eb 28 a4 3f 64 37 3d 79 a1 3a 74 3f
       0.03937468305230141 0.004938727146351105
0003d0 f5 5a 5e 58 f9 37 ae bf 00 00 00 60 75 66 a9 3f
       -0.05902079776494943 0.049609821289777756
0003e0 00 00 00 80 e4 21 80 3f 03 59 8b e8 c1 7e c3 3f
       0.00787714496254921 0.15230583052352395
0003f0 7d cf 2a 8b d6 43 da bf 40 17 76 bb 46 3a dd bf
       -0.4103905066542593 -0.45668190294997046
000400 ac 22 cd 79 74 54 db bf 38 b1 98 14 c4 cb d8 bf
       -0.4270297231164857 -0.3874368859421966
000410 8f d2 18 b9 9b 17 e6 bf ea 42 0b 33 97 e4 d1 3f
       -0.6903818717169815 0.2795770643688643
000420 70 37 4e 67 aa fb d3 bf ba 76 76 ea 1e 53 e1 bf
       -0.3122354515879726 -0.5413965777731484
000430 f6 27 d9 88 86 18 e8 bf 64 b7 ed 94 ea 86 de bf
       -0.7529938385789581 -0.4769846395855579
000440 3d 00 3e be 28 ea d7 bf d0 46 ae 73 28 df c7 bf
       -0.3736669404825113 -0.18649774216151238
000450 3b 61 ff 2f d2 84 c8 bf 7f dd 2f d4 c9 c9 da bf
       -0.19155337661391933 -0.4185661861551679
000460 62 cb f6 1e 27 7d e3 bf 30 b7 fc 53 14 55 e1 bf
       -0.6090274433866905 -0.5416356697439593
000470 43 8e 3a 2e e5 8a e3 bf fd 2f fe 6f 7e 89 c5 3f
       -0.6107049849419542 0.16825848072437558
000480 00 00 00 a0 78 62 a8 bf b4 a0 88 63 ae d9 d3 bf
       -0.047626275569200516 -0.3101612064369974
000490 f5 25 69 a8 e8 54 f1 3f 00 00 00 80 2d e7 99 bf
       1.083229692320285 -0.025295935571193695
0004a0 43 e8 5b b7 fb dd d4 3f d5 3b 31 c3 4b 5a df bf
       0.32604878336099236 -0.4898862272429459
0004b0 a9 4d d9 89 23 79 e0 bf 83 4d a9 f3 ef e0 e4 bf
       -0.5147874538765126 -0.6524581679354217
0004c0 81 5d ba 02 83 2a e1 bf 00 00 00 00 98 f2 50 3f
       -0.5364394238740006 0.0010344013571739197
0004d0 00 00 00 e0 87 f9 a0 3f 00 00 00 20 13 d7 a7 3f
       0.03315376862883568 0.046562764793634415
0004e0 00 00 00 40 e4 97 9a bf 00 00 00 80 c5 5a 95 bf
       -0.02597004547715187 -0.020854078233242035
0004f0 00 00 00 20 8e e0 a4 3f 00 00 00 40 34 a8 ac bf
       0.04077572003006935 -0.05597079545259476
000500 00 00 00 40 8b 2c 9c 3f 00 00 00 40 e2 d7 a7 bf
       0.027513671666383743 -0.046568937599658966
000510 a6 2a 76 4f d0 5c e0 bf 30 7e 54 0b 98 4b d8 bf
       -0.5113297988876482 -0.3796138868947052
000520 bc ac 18 6c 69 90 cc bf 1e ed 3f cf ab 3a b5 bf
       -0.22315709856170496 -0.0829265004139654
000530 f3 42 4f 58 05 da d8 bf 33 e6 6c b4 0c 2f d2 bf
       -0.3883069384001338 -0.2841216814009357
000540 b0 ac 01 0b 02 1f c8 3f a6 cb 52 d9 c0 27 e3 bf
       0.18844628846577427 -0.5986026997182889
000550 34 30 75 bb f3 64 de bf ae af ac 62 6d 04 b2 bf
       -0.47491162592337166 -0.07038005503699082
000560 9c ef 4e e8 e1 af a9 bf d5 fb 39 ce 31 fe b5 bf
       -0.05017000160975657 -0.08590995106531747
000570 f9 88 b2 5e 5b 4e b3 bf d9 92 4a 90 be 65 bc bf
       -0.07541438161800675 -0.11092749617325683
000580 90 c6 73 9c 0a 94 c4 bf 83 e8 0c af 81 61 b5 bf
       -0.16076786650915098 -0.08351908229534115
000590 a4 57 9e ca d3 fc a8 bf 6e 8d 21 82 85 75 c0 bf
       -0.048803919299799575 -0.12858647207313417
0005a0 de 46 e3 c6 d5 5b de bf a5 20 27 48 68 ca db bf
       -0.4743551676047967 -0.434228964292297
0005b0 6c 38 7e 3b 8a ab c8 bf 44 40 f1 e3 f5 9d d8 bf
       -0.19273498444494253 -0.3846411443710205
0005c0 82 09 57 47 d0 12 dc bf e8 42 ae 78 13 bc d5 bf
       -0.4386482903174952 -0.339604251720671
0005d0 1d c8 1f 1e 81 3d 77 bf bb ca 86 28 05 05 db 3f
       -0.00567388950911332 0.4221814056174186
0005e0 4a 24 86 65 3a 0a e3 bf 32 45 b8 3a c6 f4 de bf
       -0.5949985487833456 -0.48368983969074286
0005f0 a1 ed 9f 77 bf ae dd bf 2a 95 f8 df 1b 60 cf bf
       -0.4637907665453103 -0.2451205104454542
000600 0a ac 0c 68 3d 46 aa bf e0 39 64 70 b3 2c e1 bf
       -0.05131713767180919 -0.5367066569468157
000610 4e 91 de 48 e6 e4 e3 bf 46 1c f9 98 fb e4 e2 bf
       -0.6216918395262299 -0.5904520023112887
000620 56 c8 43 23 ed 75 cf bf e4 d8 8c 3f 32 71 d9 bf
       -0.24578632566368935 -0.3975339527709265
000630 07 4e a4 31 df 45 e0 bf 1f 21 8a 13 f1 5b db bf
       -0.5085292787138663 -0.42748667629395415
000640 55 86 ed f2 6c 8b d6 bf 00 00 00 40 e0 bd 91 bf
       -0.352259862169466 -0.017325881868600845
000650 7e c8 be ad 33 1d d7 bf e9 91 15 43 ba 28 d2 bf
       -0.3611573406916547 -0.28373581458279645
000660 08 1a 14 f1 c2 4d cf bf b6 d0 97 93 80 60 e2 bf
       -0.24456059237873284 -0.5742800600696885
000670 72 10 5d 21 71 6e d7 bf 27 c9 60 62 9c 67 e5 bf
       -0.36611583955914917 -0.6688978120276133
000680 25 98 78 44 7f 91 d6 bf 41 f6 b5 62 05 6b d9 bf
       -0.35263044058445053 -0.39715704574323146
000690 a8 c1 d1 d0 0f 9f b1 bf 39 30 29 75 11 7f bb bf
       -0.06883334015015541 -0.1074076567685446
0006a0 5a 5d 48 97 b9 04 29 3f cd c5 1e ff 0c c6 e0 bf
       0.0001908756782007342 -0.5241761191193121
0006b0 f1 33 50 42 d1 eb ae bf f6 f1 9c 6e 86 7a 97 3f
       -0.06039289412010607 0.022928333760534124
0006c0 00 00 00 00 b0 a6 3d 3f 00 00 00 40 93 4f 9d 3f
       0.0004524402320384979 0.02862386777997017
0006d0 00 00 00 a0 b9 33 a2 3f 00 00 00 00 2f 41 a4 bf
       0.035550881177186966 -0.03955981135368347
0006e0 00 00 00 40 c4 de 93 3f 00 00 00 a0 4a d6 a9 3f
       0.019404474645853043 0.05046303942799568
0006f0 00 00 00 c0 e1 18 94 3f 00 00 00 80 f0 ee 82 3f
       0.01962616667151451 0.009244803339242935
000700 00 00 00 00 a2 a2 6a bf 64 82 81 d1 23 6c de bf
       -0.0032513774931430817 -0.4753503366428389
000710 bf 06 a2 a0 e8 6c e2 bf 1d d9 e7 8f c8 c7 de bf
       -0.5757945191728239 -0.48094381383215695
000720 2e 01 35 78 87 c8 e8 bf 91 2d fa 00 70 18 d7 bf
       -0.7744786594194346 -0.3608665475410016
000730 3b c4 ba 91 76 ec c6 bf 9b 9b 1e a5 07 72 d9 bf
       -0.17909128299427998 -0.3975848305221292
000740 bb f7 9e 42 3c 82 de bf 5b b0 37 07 11 63 ea bf
       -0.47669893747285713 -0.8245930806128955
000750 e0 e9 9a 01 bc d1 dc bf f7 97 27 55 55 15 e3 bf
       -0.45030117184401597 -0.5963541663338664
000760 d0 ad d7 fd bc 9e e1 bf 9f 94 01 b6 6a 8e e4 bf
       -0.5506272275792359 -0.6423848681266867
000770 68 7f 0b 31 e6 7e e4 bf d6 f4 70 e2 b8 6e b7 3f
       -0.6404906232746557 0.09153323677397238
000780 57 e0 f6 fd 7f a3 e0 bf 1f cb 5b 21 7b bb e0 bf
       -0.5199584923020762 -0.5228858615431341
000790 d9 c2 f8 2b c5 ac d2 3f 50 5c de 09 e0 5e dc bf
       0.2917950562869414 -0.44329071964006506
0007a0 dd b0 11 a4 12 c0 dc bf c1 9e 20 82 93 13 db bf
       -0.4492231943356851 -0.423069836690484
0007b0 15 56 a0 a0 b2 ad da 3f 09 cf 65 40 2d ad e1 bf
       0.4168516701332419 -0.5523897416846647
0007c0 ef 3a 48 57 90 38 c4 bf 95 1b a7 46 f2 cf dd bf
       -0.1579761911566133 -0.4658170404404072
0007d0 1c 66 fb 1d f0 70 d9 bf 44 b2 c4 22 67 e9 d9 bf
       -0.3975181858819228 -0.40487078090044215
0007e0 b9 da ed 12 8f 16 a2 bf 00 00 00 e0 d4 b7 ad 3f
       -0.035328360615428385 0.05804314836859703
0007f0 00 00 00 a0 ca a2 a0 3f b5 af a4 bc 75 e9 bc bf
       0.03249200060963631 -0.1129373155169436

fc1.bias f8 [64]
000000 ca 10 2b f1 39 20 de bf a7 ee e3 f3 a3 66 d9 3f
       -0.47071693946442095 0.39688967530649183
000010 95 d4 e3 f4 a0 61 e1 bf e8 ea 18 15 74 73 b0 bf
       -0.5431675704009132 -0.06426167979308739
000020 71 27 8d 0e f0 dd b6 3f 46 88 98 72 53 9a 86 3f
       0.08932400088556648 0.011036540922820259
000030 0c 8e 17 ef 05 58 c3 3f 6b ba 7a 68 7b d9 c2 bf
       0.15112375425734148 -0.1472620258477549
000040 6b a6 4c e9 ad 60 b7 bf 9c 3f 47 a1 b0 c3 ae bf
       -0.09131895967279895 -0.06008674591760085
000050 4d 1d 43 0e 24 dc ba bf 0e 03 11 a9 ae 6b c6 bf
       -0.10492158268163117 -0.17516120200345892
000060 ed 7d d7 ca 8e 23 e3 bf 46 5a f5 da af d2 d3 bf
       -0.5980905496361949 -0.3097343099847517
000070 4a 8c 5d 96 96 c3 c1 bf 9b 4d f1 0b 0c bf d9 bf
       -0.13878137914716354 -0.40228558698910327
000080 da 2f 24 ab f3 79 d9 bf cb a0 7a cd 33 c8 d8 bf
       -0.3980683490087792 -0.3872193819647804
000090 c6 ae 6b cf 92 f5 d8 bf 38 d5 80 fe 1b e0 ba bf
       -0.3899886155693192 -0.10498213733156525
0000a0 e9 0e 16 5c 0f 8b dd bf 65 30 0a 7f 4a 03 be bf
       -0.4616125487593608 -0.1172377166896595
0000b0 bb 05 ed 2a 3c 22 ab bf e0 eb e9 8f 3c cc d6 bf
       -0.05299556755063458 -0.3562156110198753
0000c0 27 94 87 8a 07 d9 c0 bf f5 a4 64 b0 c2 6d b3 bf
       -0.13162321342602576 -0.07589356237862772
0000d0 02 55 e2 d0 75 7b da 3f 15 24 24 fa e8 25 b4 bf
       0.41378541373099165 -0.0787034617134313
0000e0 fb 79 ec 4f 25 02 c6 bf 51 bf 23 66 ae 60 c1 bf
       -0.1719404831173533 -0.13576297747885716
0000f0 55 30 0e 8f 69 3b e0 bf 46 89 6a 7b d6 16 c5 bf
       -0.5072524828006048 -0.16475945497684047
000100 96 5e 85 4e 83 09 bb bf cb b1 b7 8a 55 1f d8 bf
       -0.10561390559211711 -0.37691248461376564
000110 84 bb fa e5 59 b9 c7 3f 98 e4 3e bb 12 1e c2 3f
       0.18534396867240954 0.14154276030402424
000120 df cc 50 9e 3e fc cf 3f 7a 11 0f 53 fb 1d dc bf
       0.2498853943849104 -0.4393299399491962
000130 2f 2d b1 8b 37 f4 ae 3f da 59 10 d1 e6 fc d1 3f
       0.0604569776556566 0.281060890354096
000140 aa 2f 21 92 56 cf b9 bf 05 94 3f 47 9d 3e c6 3f
       -0.10081997935884482 0.17378583887980895
000150 9d 76 cf af c1 7b d4 3f 02 ef e6 8a c4 62 de bf
       0.32005350274071437 -0.47477830471665083
000160 60 66 33 11 ee 14 c7 bf fb 8c 1a 88 26 1f f1 bf
       -0.18032623138315085 -1.0701051060248676
000170 69 65 f2 b1 ab 0c c3 3f b2 25 16 c8 7f 6e c3 3f
       0.14882417858897704 0.15180966634606602
000180 43 a4 c2 e9 de 85 c8 bf 66 e4 e5 20 e3 8c c3 bf
       -0.1915854112060363 -0.15273703676556066
000190 52 10 f8 12 21 9f c5 bf a7 40 73 76 f0 2c e3 bf
       -0.16891873766155868 -0.599235755298669
0001a0 82 72 0f 08 a6 e9 bb bf 87 61 3b 19 be e9 b7 bf
       -0.1090339440992896 -0.09341037860884259
0001b0 9a e0 e1 34 de 52 ca 3f 99 45 46 7c 7c 1b e2 bf
       0.20565393049378572 -0.5658552577244108
0001c0 59 e5 14 6f 82 c4 e8 bf d8 3d 83 7f cd bc d0 bf
       -0.7739879769862156 -0.2615236039391369
0001d0 11 d8 9a 62 b6 66 b8 bf f9 68 f8 7d 04 58 d7 3f
       -0.095317267487957 0.36474716474334873
0001e0 84 c2 e0 2d d0 7d f2 bf 34 6c 7b e9 34 61 dc bf
       -1.1557161132915619 -0.4434330253695322
0001f0 2e 16 0f 11 69 d1 e7 bf 15 0a 2e 50 18 95 d1 bf
       -0.7443127949888486 -0.2747250350004447
