best-FC-Overfit.pt (torch, 160370 bytes, 12 tensors)

input_layer.weight f8 [100, 121]
0.06501002609729767 0.048173487186431885 0.07189176976680756 -0.026849500834941864 -0.038709186017513275 -0.04404125735163689 0.06338465213775635 -0.06243212893605232
0.06784969568252563 -0.013830922544002533 0.061440616846084595 0.055085450410842896 -0.005933709442615509 0.054903194308280945 0.03255005180835724 -0.060969311743974686
8.574128150939941e-05 -0.019037701189517975 -0.05569436401128769 -0.046510446816682816 0.06923149526119232 -0.030554641038179398 0.013241484761238098 -0.0067372992634773254
0.0050239115953445435 0.05545419454574585 -0.018996648490428925 -0.023435398936271667 0.003359086811542511 0.030246786773204803 0.06258577108383179 -0.02082359790802002
-0.0905473604798317 0.07631249725818634 0.04785381257534027 -0.0856131985783577 -0.0334310419857502 -0.04374133422970772 -0.07104843854904175 -0.019856229424476624
0.012233510613441467 -0.02028243988752365 0.010233856737613678 -0.02489963173866272 0.013386890292167664 -0.02239091694355011 0.020218342542648315 -0.004399493336677551
-0.013966299593448639 0.054285794496536255 0.009535863995552063 -0.07837720215320587 -0.05405273288488388 0.020153120160102844 -0.0838332325220108 0.051055505871772766
0.02403353899717331 0.05252821743488312 -0.04408266395330429 0.07263718545436859 -0.0048969462513923645 -0.008400775492191315 0.012468598783016205 -0.0007218867540359497
-0.09071902185678482 -0.036367256194353104 0.06600223481655121 0.045223355293273926 -0.07190985232591629 -0.012102954089641571 -0.05145277827978134 -0.06273049116134644
-0.051547180861234665 -0.03385811671614647 -0.05304647609591484 0.04561677575111389 -0.00806581974029541 -0.0733841210603714 0.025363415479660034 -0.06453089416027069
0.087396040558815 -0.0867181196808815 -0.005715020000934601 0.012460224330425262 -0.027544349431991577 0.057828500866889954 0.00816085934638977 -0.05523696914315224
-0.031205177307128906 -0.0805915966629982 0.017886310815811157 0.026166558265686035 0.010609365999698639 -0.08905443549156189 0.07205033302307129 -0.049777813255786896
-0.022289134562015533 -0.03255860507488251 -0.05053982138633728 0.02843734622001648 -0.07523076236248016 0.045897677540779114 0.0179147869348526 -0.06371438503265381
-0.07292499393224716 0.07076415419578552 -0.02930079773068428 -0.0013245120644569397 -0.019689247012138367 0.06969660520553589 0.06635820865631104 -0.0778256356716156
-0.06282703578472137 0.08819456398487091 0.08806151151657104 0.03858146071434021 0.05666789412498474 0.0086447075009346 -0.0010150447487831116 0.06032039225101471
0.006050370633602142 -0.10030076834710458 -0.03319016471505165 -0.037225707220161275 0.047626704023673014 0.007994286715984344 -0.0692813670586833 -0.012477045413055754
-0.05705374431690567 -0.0045645081444444175 -0.06163498415120746 0.003494416956893844 -0.10743654464578309 0.04981938823922115 -0.059208229280239534 -0.0011784093745066519
0.03975445895628975 -0.019199790268700792 -0.0442343809793769 -0.052281720856244655 -0.10251967940426816 0.044395783132956806 0.025953346928694172 -0.06572481753231371
-0.0943969186108293 0.01697496775133396 -0.07350571772435899 0.04551054339854474 -0.1029361028933206 0.04718978950797992 -0.022439886283898633 0.041991289503408656
-0.003857763684369441 0.05756520168226984 -0.0510068082121794 -0.054231916780398494 -0.044474489825793787 -0.08499356717660232 0.027579793308941124 0.05638109703015958
-0.038886757190587984 -0.0473948332258585 -0.07655592991753565 -0.091406714718132 0.05486353949963098 0.014438385019952319 0.05050763990183559 -0.006376568181068101
-0.10147286897680964 0.03901724554895996 -0.12056632284496262 -0.08949258178472519 0.05554850872653265 -0.018227726093294705 0.03724925542466188 0.01328556827216544
0.026125235840360927 -0.051915571093559265 -0.06297276685556412 -0.10132013838735751 -0.11153371910081332 -0.08866097669924498 -0.09174004721586113 -0.053418684350693975
-0.0022234439076085446 0.053552944289689174 0.051181496507337144 -0.05346665903925896 -0.04278305701148018 0.008933044970035553 0.06111965500478152 -0.02976721152663231
-0.031222609262418596 0.10896208926624401 -0.08433268378635878 -0.04057095539392131 0.03795352448388972 -0.0889620623112357 0.011718698626954637 0.034751728311154376
-0.05872313121296889 -0.039923225208300064 -0.05193772166967392 0.01454561091786373 -0.04807203249238653 -0.06520977476103275 -0.021213373981657326 -0.021884261768383848
-0.11902339540483349 -0.01368317459305169 0.011914028224374627 0.036733863955931936 -0.07020840470979521 0.0070144486295742195 -0.05182215576562069 -0.10603876265536731
0.05067771387776702 -0.03064983854896346 -0.04163341737445299 0.05803513441453056 -0.0162072076500885 -0.0443375872104844 -0.09392683783045332 0.0452310716423462
-0.1156734012115968 0.04893898618190218 -0.11548790020494512 -0.017297193535245316 0.017799061900159317 -0.11470726045311612 -0.00147328622857366 -0.030156552549720543
-0.053190735634234765 -0.0767543161622344 0.043998154532906286 -0.026659034192562103 -0.06870086432380869 -0.1119613134701883 -0.07079155040908507 -0.039332834214432955
-0.028954831572278652 -0.013262220938901765 -0.017594217792024747 -0.04342469573020935 -0.014212826743766687 0.03249691872051116 0.03636971116065979 -0.07571092884504578
-0.05346465002262382 -0.0553805295702198 -0.07366095002257607 0.010868971933799815 0.012122103894825872 -0.003347386455184414 -0.0323498459426445 -0.017615942407842592
00000000: 0000 0040 7fa4 b03f 0000 0000 32aa a83f
00000010: 0000 00c0 7f67 b23f 0000 0080 6f7e 9bbf
00000020: 0000 00c0 b0d1 a3bf 0000 0060 938c a6bf
00000030: 0000 0000 fa39 b03f 0000 00a0 1af7 afbf
00000040: 0000 0000 995e b13f 0000 0000 6353 8cbf
00000050: 0000 0000 2575 af3f 0000 0000 2934 ac3f
00000060: 0000 0000 f24d 78bf 0000 0080 451c ac3f
00000070: 0000 0080 66aa a03f 0000 00a0 5e37 afbf
00000080: 0000 0000 007a 163f 0000 0080 9e7e 93bf
00000090: 0000 00c0 f883 acbf 0000 00a0 37d0 a7bf
000000a0: 0000 00c0 27b9 b13f 0000 0040 b749 9fbf
000000b0: 0000 0000 5a1e 8b3f 0000 0000 9298 7bbf
000000c0: 0000 0000 f493 743f 0000 0000 7e64 ac3f
000000d0: 0000 0080 db73 93bf 0000 0000 73ff 97bf
000000e0: 0000 0000 8484 6b3f 0000 0080 03f9 9e3f
000000f0: 0000 0000 9f05 b03f 0000 0000 c852 95bf
00000100: 0000 00a0 1c2e b7bf 0000 0040 3789 b33f
00000110: 0000 0080 4b80 a83f 0000 0020 bfea b5bf
00000120: 0000 00a0 df1d a1bf 0000 00a0 4365 a6bf
00000130: 0000 0000 3b30 b2bf 0000 0000 3155 94bf
00000140: 0000 0000 e20d 893f 0000 0080 ebc4 94bf
00000150: 0000 0000 7df5 843f 0000 0000 4a7f 99bf
00000160: 0000 0000 966a 8b3f 0000 0000 a5ed 96bf
00000170: 0000 0000 1eb4 943f 0000 0000 3405 72bf
00000180: 0000 0000 5d9a 8cbf 0000 0000 59cb ab3f
00000190: 0000 0000 8a87 833f 0000 0040 8710 b4bf
000001a0: 0000 00c0 ccac abbf 0000 0000 05a3 943f
000001b0: 0000 0040 1876 b5bf 0000 0080 f223 aa3f
000001c0: 0000 0080 3f9c 983f 0000 0080 fae4 aa3f
000001d0: 0000 00c0 0092 a6bf 0000 00c0 5998 b23f
000001e0: 0000 0000 d20e 74bf 0000 0000 6d34 81bf
000001f0: 0000 0000 2389 893f 0000 0000 a0a7 47bf
00000200: 0000 00a0 5c39 b7bf 0000 00a0 ba9e a2bf
00000210: 0000 00c0 85e5 b03f 0000 0000 8427 a73f
00000220: 0000 0020 af68 b2bf 0000 0000 6fc9 88bf
00000230: 0000 00c0 0458 aabf 0000 0000 1b0f b0bf
00000240: 0000 0060 6464 aabf 0000 00e0 d955 a1bf
00000250: 0000 0060 e828 abbf 0000 0000 155b a73f
00000260: 0000 0000 d084 80bf 0000 0040 4dc9 b2bf
00000270: 0000 0000 def8 993f 0000 00c0 1885 b0bf
00000280: 0000 0040 965f b63f 0000 00a0 2833 b6bf
00000290: 0000 0000 a268 77bf 0000 0000 bf84 893f
000002a0: 0000 0000 9634 9cbf 0000 0080 b29b ad3f
000002b0: 0000 0000 a4b6 803f 0000 0020 0548 acbf
000002c0: 0000 0000 40f4 9fbf 0000 00a0 a6a1 b4bf
000002d0: 0000 0000 ca50 923f 0000 0000 68cb 9a3f
000002e0: 0000 0000 5dba 853f 0000 0080 45cc b6bf
000002f0: 0000 0000 e471 b23f 0000 0040 7a7c a9bf
00000300: 0000 0080 f6d2 96bf 0000 0080 85ab a0bf
00000310: 0000 0000 5be0 a9bf 0000 0000 ae1e 9d3f
00000320: 0000 00c0 5242 b3bf 0000 0080 e67f a73f
00000330: 0000 0000 4158 923f 0000 0000 964f b0bf
00000340: 0000 0060 36ab b2bf 0000 0080 991d b23f
00000350: 0000 0040 0701 9ebf 0000 0000 68b3 55bf
00000360: 0000 0000 6b29 94bf 0000 0000 a3d7 b13f
00000370: 0000 0000 dafc b03f 0000 0080 61ec b3bf
00000380: 0000 00c0 6e15 b0bf 0000 0040 eb93 b63f
00000390: 0000 0000 338b b63f 0000 0000 f3c0 a33f
000003a0: 0000 0000 9303 ad3f 0000 0000 51b4 813f
000003b0: 0000 0000 68a1 50bf 0000 0080 50e2 ae3f
000003c0: 0000 0000 46c8 783f 2a82 d0a7 4fad b9bf
000003d0: 0000 0020 4dfe a0bf 3081 2976 3f0f a3bf
000003e0: 5659 6500 8762 a83f 0000 0000 4f5f 803f
000003f0: 4b3d bd75 6cbc b1bf 538d ffaf 908d 89bf
00000400: 7e31 e9fb 2536 adbf 7951 3ed3 3bb2 72bf
00000410: 8b15 70e2 9e8e afbf 84e0 8cd1 52a0 6c3f
00000420: 261d a61d f680 bbbf ce6b 6346 ed81 a93f
00000430: 354d d380 8a50 aebf 3a38 636e 9b4e 53bf
00000440: c6c4 2c4a b25a a43f 2430 2d1d 1ca9 93bf
00000450: cc98 5487 e3a5 a6bf f728 8372 abc4 aabf
00000460: 4ddc 3cce ba3e babf b4d0 4549 0bbb a63f
00000470: 1237 1fa1 8393 9a3f 1e3c d675 57d3 b0bf
00000480: ded4 467e 652a b8bf 74db 5ecd e261 913f
00000490: 00f4 b14d 45d1 b2bf 5c35 0a6f 284d a73f
000004a0: 1b27 813b 055a babf d0a6 4895 4229 a83f
000004b0: 8c78 dc46 7bfa 96bf bb9c 44de e17f a53f
000004c0: 4ba3 851b 519a 6fbf 3dda 39a5 2f79 ad3f
000004d0: 3010 4a7a 901d aabf cd41 f129 49c4 abbf
000004e0: 3abb 9d3e 5cc5 a6bf b7d5 646f 23c2 b5bf
000004f0: a35b 2b99 e03d 9c3f cfda b6af fbdd ac3f
00000500: 601b c30c f7e8 a3bf e5ab 68b5 2244 a8bf
00000510: f688 4f5f 2b99 b3bf c863 5932 6e66 b7bf
00000520: 9295 c9e7 1217 ac3f 82f4 bd3b df91 8d3f
00000530: bf2e 272b 23dc a93f dc40 c6fc 501e 7abf
00000540: f1ca af3d 20fa b9bf e7be 3983 11fa a33f
00000550: 493b 9e3d 6fdd bebf 0000 0060 fce8 b6bf
00000560: e6e0 a4a8 da70 ac3f 60f9 cdfd 49aa 92bf
00000570: f5d3 b29b 5512 a33f c8dc e6c9 7635 8b3f
00000580: f377 23e6 92c0 9a3f 0000 0080 ad94 aabf
00000590: 7beb 2eb6 fb1e b0bf e6c5 ccd8 1df0 b9bf
000005a0: 4772 f04b 798d bcbf ffcb 5a5b 7cb2 b6bf
000005b0: fe8e 8696 467c b7bf f12a 909c b159 abbf
000005c0: 15f2 c35b e636 62bf a34e a8a0 4a6b ab3f
000005d0: 7d96 510b 7634 aa3f 0000 0060 fb5f abbf
000005e0: 1ada 5f2d a9e7 a5bf 0000 0000 7d4b 823f
000005f0: 6ad4 c64e 134b af3f 0000 00c0 4b7b 9ebf
00000600: bf24 b6d6 d1f8 9fbf 7400 e781 f0e4 bb3f
00000610: 74a8 d8a6 d396 b5bf 2132 2b5d b7c5 a4bf
00000620: 583c daf4 a46e a33f ff22 36bc 37c6 b6bf
00000630: 06ea d51a f9ff 873f 72da 2681 faca a13f
00000640: 6e26 2850 f510 aebf 12b1 3d25 d170 a4bf
00000650: 0000 00c0 9497 aabf a85f 8ad9 16ca 8d3f
00000660: cb68 d0be e59c a8bf d168 fa79 96b1 b0bf
00000670: bac5 f46d f5b8 95bf f986 5ef2 d368 96bf
00000680: b5fe b836 5178 bebf 8498 0f9b ec05 8cbf
00000690: 92cf b2cc 6166 883f b260 b1f0 c7ce a23f
000006a0: eb05 2292 2df9 b1bf f177 6ab7 2ebb 7c3f
000006b0: 2470 7100 6f88 aabf 4b8e b639 5b25 bbbf
000006c0: 856b 7be7 6df2 a93f 6d2b c8d8 ab62 9fbf
000006d0: 5a86 16ac f950 a5bf 8fa3 a8f8 c7b6 ad3f
000006e0: b535 444b 9f98 90bf 8deb 1a8e 6ab3 a6bf
000006f0: 69d0 b2d8 960b b8bf d20e efea 8628 a73f
00000700: 948c 38a3 c59c bdbf 1024 4de2 870e a93f
00000710: 7ec5 7672 9d90 bdbf 8a93 2f02 5bb6 91bf
00000720: 79eb 0ad3 ea39 923f 0388 427c 745d bdbf
00000730: adf9 d60a 6923 58bf 0e39 d8fb 5be1 9ebf
00000740: c899 ffeb d03b abbf 415f bebd 2ba6 b3bf
00000750: 483b 9b15 ed86 a63f 0000 0080 814c 9bbf
00000760: fd49 7a3d 6196 b1bf b58b c523 7fa9 bcbf
00000770: 7314 d721 651f b2bf 384f 38e9 6e23 a4bf
00000780: 6710 a8da 55a6 9dbf 97a7 a329 3929 8bbf
00000790: 80d1 0ff8 3704 92bf 0000 0000 c33b a6bf
000007a0: 89b2 6250 9d1b 8dbf eb2f 40a6 6fa3 a03f
000007b0: 0000 0000 0d9f a23f 65d9 569b ca61 b3bf
000007c0: d4b2 adf6 b75f abbf d4b2 ad36 d65a acbf
000007d0: 65d9 56ab 71db b2bf 9d78 f9b7 7842 863f
000007e0: 1ec2 4b3e 79d3 883f 2553 446b fa6b 6bbf
000007f0: 5766 b5b4 2890 a0bf 019f 1ee2 e909 92bf

input_layer.bias f8 [100]
0.004112914204597473 -0.07841544347791504 -0.04894293736183434 0.03165304553549921 -0.08261344753491799 -0.011618904769420624 -0.08267125874304594 -0.06895708707423204
-0.07124322652816772 -0.033655449748039246 0.03565266917806056 0.03280078685308957 -0.06465686857700348 -0.10596874558767455 0.017369235606077154 -0.004098646342754364
0.057407960295677185 -0.09407159612886669 -0.05824674110853716 0.04564915736345645 0.01755407452583313 -0.0027091632215523933 -0.043995007107582806 0.02980762691148733
0.009028977924502449 -0.01226403912585116 0.02714846526485648 -0.03497570535310933 0.037377733398394786 -0.09410094706572068 -0.09891941600387051 0.019483139072514567
-0.0325663760304451 -0.06033818068177383 -0.00872071087360382 -0.02982908781899258 -0.06516258047475955 0.04128340210659208 0.014330223202705383 -0.05508875034449786
0.029511243104934692 -0.025009888937931928 0.022189591617411342 -0.0785040333867073 -0.04764250199189197 0.06226795180777672 0.05913898657587242 0.043549723600928174
-0.07250328361988068 0.0064438506960868835 0.05549711274517699 -0.009980149567127228 -0.05944163352251053 -0.016771133185110847 -0.0338084118416225 -0.024875046597323296
-0.04651545418832325 0.08030123335735088 -0.02530096303836562 -0.08643962150740578 0.042569810619524376 -0.07777037329918732 0.09029832482337952 0.0463397716031156
-0.046298328272908 -0.06586143492972715 0.051433981551306567 -0.055459338978757954 0.06871722638607025 -0.008127421140670776 0.052881907255866493 -0.08249809592962265
0.020360849797725677 0.014251114775261286 -0.11899541905313807 0.028240414089107255 0.07086191121583761 0.014471934964563527 -0.010366531966695925 0.008078381419181824
0.06259274482727051 -0.04386185552775825 0.0009017467391364569 0.015494424241750846 0.012895708409068804 0.013931869570344393 0.012576727657445871 -0.04826508089900017
-0.04642205630665653 -0.08564666658639908 0.023499861359596252 0.0017365291714668274 0.024504558394097906 -0.05711580277786138 0.06400198374583145 0.020700921795392253
-0.05156509768759053 -0.05799895768644592 -0.053200313442572374 -0.0006979772747785775
00000000: 0000 0000 b4d8 703f e62d 3dd5 0813 b4bf
00000010: d5b2 ad76 0c0f a9bf f39b c9f6 d334 a03f
00000020: 0b4e 5fa7 2726 b5bf 0000 0000 a7cb 87bf
00000030: 79db 9e90 f129 b5bf 24ae cff1 2ba7 b1bf
00000040: 0000 0000 ff3c b2bf 0000 0080 493b a1bf
00000050: a30e 4510 1141 a23f 2859 a2c5 43cb a03f
00000060: 0000 0040 5a8d b0bf 207c b288 c420 bbbf
00000070: dbd9 89ab 3dc9 913f 0000 0000 bec9 70bf
00000080: 0000 0080 9364 ad3f fd22 db7c 1315 b8bf
00000090: 37ca 5150 84d2 adbf f397 ee8b 535f a73f
000000a0: 0000 0000 b2f9 913f 6c7a f4ed 8631 66bf
000000b0: 08c0 6d79 8386 a6bf 475b 06fb e385 9e3f
000000c0: d562 37e7 c87d 823f 3cfc b277 e31d 89bf
000000d0: 20ee cba9 cecc 9b3f 6ed2 4aed 55e8 a1bf
000000e0: 90e4 169d 2c23 a33f 677e 2bea ff16 b8bf
000000f0: 2511 ad68 c852 b9bf 0a3a 8f54 63f3 933f
00000100: 0000 0040 8aac a0bf 49eb 7461 a5e4 aebf
00000110: 0000 0000 2adc 81bf 32bc 9b32 848b 9ebf
00000120: 31e3 0fb0 7eae b0bf 4eb3 d41b 1923 a53f
00000130: 0000 0000 2a59 8d3f 5bd9 36ba 9734 acbf
00000140: 0000 0000 3238 9e3f ee91 423c 319c 99bf
00000150: 4dc7 3b49 deb8 963f 0000 0020 d718 b4bf
00000160: 59da e817 9964 a8bf 68e4 34c1 95e1 af3f
00000170: f91e 861a 7747 ae3f 874d 3b3d 264c a63f
00000180: 0000 0040 938f b2bf 0000 0000 de64 7a3f
00000190: b0a2 8618 1e6a ac3f 0000 0000 7970 84bf
000001a0: 0000 0040 226f aebf 8b09 30b2 732c 91bf
000001b0: eb01 610e 564f a1bf 3be8 7c1e d878 99bf
000001c0: bfaf fea4 dfd0 a7bf 4b29 1923 9f8e b43f
000001d0: 8674 3ae3 7ee8 99bf f6f2 7333 e820 b6bf
000001e0: 52c7 d0d0 b5cb a53f c6ef ea59 c2e8 b3bf
000001f0: 0000 0080 ca1d b73f 2a38 14b7 d8b9 a73f
00000200: 2c4e 951b 6ab4 a7bf 563f 1785 4bdc b0bf
00000210: a7f4 5409 8e55 aa3f 8bd4 579e 2a65 acbf
00000220: 0000 00c0 7397 b13f 0000 0000 1ca5 80bf
00000230: 2f98 6d5c 5613 ab3f 0000 0060 981e b5bf
00000240: 0000 0080 79d9 943f 735c 213f b02f 8d3f
00000250: ca00 35d9 7b76 bebf fcba c01b 0eeb 9c3f
00000260: 773e 3497 0124 b23f 2da5 0f3b 76a3 8d3f
00000270: 0dc0 285e 0c3b 85bf 0000 0000 668b 803f
00000280: 0000 0000 1406 b03f d333 11a6 0f75 a6bf
00000290: 0fac 7e60 668c 4d3f bffe 1b6b 8abb 8f3f
000002a0: 6b70 01af 1069 8a3f ae04 6ae1 4f88 8c3f
000002b0: b8de d5cf d3c1 893f 0000 0060 33b6 a8bf
000002c0: d1e1 4cbb a1c4 a7bf 0000 00a0 f0ec b5bf
000002d0: 0000 0000 5910 983f 0000 0000 8873 5c3f
000002e0: 794e 9f13 b917 993f e809 0852 483e adbf
000002f0: b145 111b 6f62 b03f 95dc 6e58 9f32 953f
00000300: 7ed2 5d90 bd66 aabf 6045 ee14 0ab2 adbf
00000310: 51df be4c 123d abbf 026f c5c8 0edf 46bf

hidden_layer.weight f8 [50, 100]
0.0642479732632637 0.019394110034372445 0.038689373088634064 -0.037230987007010524 0.010629948354775997 -0.058654557913541794 -0.031039078482229525 -1.297641488057227
0.0598970428109169 -0.08993883430957794 -0.04048639107659362 0.9305332100670992 0.07526469975709915 -0.01358571575924326 0.03849755422851391 0.03917921334505081
-0.018425926566123962 -0.10861857983999762 0.33397979327582444 0.8520681923030552 0.08901304751634598 -0.17730104411955963 -0.09414515332483382 0.03428295863665326
0.058000615053080254 -0.08850322915488221 -0.03519930190552522 0.17665946766463908 -0.021651850950452713 -0.04747348854002257 -0.09279389835629051 -0.08486848336471146
0.09034941345453262 0.0527603307837859 -0.07318320125341415 -0.0842673799481417 0.0455592889816922 0.015748012131921566 -0.038396693766117096 0.09378685802221298
-0.05099482461810112 -1.3418129648268267 0.13281970993243186 0.013748683035373688 0.054290617815582365 -0.11903754206242204 0.05362745748530294 -0.10190838797355453
-0.022245272994041443 -0.07930566370487213 0.019860859455884207 -0.006601020693778992 -0.006285056471824646 -7.481609034986115 -0.028915645639874737 -0.022768142504491506
-0.05772359361617573 -1.724845828332057 0.16844195111460952 0.044752818541776984 0.0482270303387244 -0.11076987692499683 -0.06191551685333252 -0.11004752425797544
0.09411767419214119 -0.049480620298301414 0.04494409477165951 -0.05422141512434292 -0.018096134066581726 -0.09853024780750275 -0.3010900001801351 -0.05252210050821304
0.026276834309101105 -1.0859582281950007 0.03705255207009975 0.05875930919034102 -0.05410466485702943 -0.517469072365724 -0.06082589788518094 0.09246192127466202
0.08306125551462173 -0.16450622762844655 -0.07456078746176008 -0.12175139303774406 -0.20312183740451872 -0.07894506582669428 -0.04910001418375573 0.09143329411745071
0.03101279424958475 0.03290320187807083 -0.08045178651809692 0.03207125514745712 0.02953142672777176 -0.08158040451518356 0.20848856519064277 0.030227164129890245
-0.09083003648463081 -0.015226933435933768 -0.02217792134011959 -0.011546175271496274 0.006575562059879303 -0.06922088191246763 0.05568436977231986 0.12726670622568703
-0.09283421042083113 0.013764247298240662 -0.019049751465823665 0.5930659330151016 0.07469756156206131 -0.0710020512342453 -0.05879955683194304 -0.400994576497685
0.05294901877641678 0.01273009544267253 0.05136065091537635 0.035265855491161346 0.03425363451242447 -0.0675176774091075 0.006838262872954468 -0.8515513383289823
0.09246689826250076 0.002472735797547421 0.019493302670720105 -0.051949637837817524 -0.10168887811493585 0.10329574258104231 -0.2899557518437157 -0.10221354690288093
-0.11684084202970196 0.022695489269809136 0.07700825989956492 -0.08015727477904676 0.09459824115037918 -0.0661937112143256 -0.07947643846273422 -0.11587056722906484
-0.013987818215313023 -0.018801909476640382 0.07379255443811417 0.07141475731917842 0.0515151247382164 -0.04644024082532471 0.013687630913309073 0.08801368623971939
-0.05603081898106726 -0.13043185848209682 -0.01307597650191298 -0.08273711883559694 -0.08621875196695328 0.07009641081094742 -0.08380251402198442 0.07399249821901321
0.07133901864290237 -1.0506713790184972 -0.04156621770284927 -0.04710650198160166 0.013331068953922139 -0.4093271678894934 -0.21109509383959638 0.06358795529690624
-0.0314143604039947 -0.0029379255875720605 -0.01949223130941391 0.08004784636946753 0.20201007107302016 0.012601463606207858 0.09840773879738078 0.0908696068010916
-0.08584767580032349 -0.04375651106238365 -0.02601798450877138 -0.04646800830960274 -0.004076078534126282 -1.8628485402429777 -0.0715319375651241 -0.005804908314765923
-0.09995918169065335 -0.3217640306353512 -0.08232749836645316 0.0976640060544014 0.005817212164402008 -0.07193516093343123 0.06386096353536497 0.07914672236796996
0.14457046287917327 -0.026507794092198417 0.018720415205506866 -0.014801964163780212 -0.04937073426641165 0.08271575719118118 0.03279154747724533 -0.012566044926643372
-0.04100858259107728 0.0047621993315174116 0.40741831242312243 0.03272724652720489 0.03469471134955107 -0.13485303662835846 0.011874916827198668 -0.0652811079765635
-0.05614001676440239 0.1270040051741121 -0.03235017554714909 0.05451349762410166 0.1654420580001908 0.02263908088207245 0.046822239967699665 0.42289817769314064
-0.015212677419185638 0.061021335422992706 -0.05383983405609684 0.11238601620938463 0.018788300454616547 0.07831801294352218 0.0759782119388791 0.049222297966480255
-0.08832301199436188 -0.047678055676319483 0.07336748899389962 -0.5001311507190739 -0.029771670699119568 0.12189820163498163 0.12102661002247038 -0.008450538932800263
-0.05901737298392332 -0.04092221623956821 0.28650842700100165 0.22424326253246046 -0.0032331522396100904 -0.025915005167949003 -0.03444932146979927 -0.039274569555622085
-0.04960750415921211 0.06310123870166023 0.08874762803316116 0.01706658691890187 -0.05984444910343256 -0.020518586458569164 0.055779822170734406 -0.037519315491248824
-0.02297244220972061 0.04620938470315165 0.2855654432239274 -0.08882533758878708 0.011301732073279355 0.08510233152600061 -0.03635396425610809 -0.04828694911870291
-0.08070973306894302 -0.0022008270025253296 0.10681856030450217 0.09887277334928513 0.003414645791053772 0.7574591904719582 0.06698356881869702 0.10336528274425458
00000000: 0000 0020 8e72 b03f 89a3 54b1 0cdc 933f
00000010: 4fa2 3cf0 17cf a33f 0c92 2f9f f00f a3bf
00000020: 66e0 5584 27c5 853f 0000 0060 f807 aebf
00000030: 1ea7 ea4b b5c8 9fbf 8f37 92b8 23c3 f4bf
00000040: 0000 0040 d3aa ae3f 0000 0040 3b06 b7bf
00000050: 66cd 36db a1ba a4bf 1790 2295 edc6 ed3f
00000060: 0000 0020 8c44 b33f b694 07e7 d3d2 8bbf
00000070: 5760 c690 f3b5 a33f 0000 0040 4c0f a43f
00000080: 0000 0000 3fde 92bf dc97 2660 6dce bbbf
00000090: 993f 69c8 ec5f d53f 27e9 7c83 2444 eb3f
000000a0: 0000 0020 8fc9 b63f 0524 05f5 ccb1 c6bf
000000b0: bd68 9b92 e519 b8bf b820 4f34 898d a13f
000000c0: fa0a 9ab1 41b2 ad3f 5284 cfca 25a8 b6bf
000000d0: 1f72 0d95 a405 a2bf 96fe 1206 c79c c63f
000000e0: 1795 eb1e e72b 96bf e5b0 69f1 714e a8bf
000000f0: da67 b546 57c1 b7bf db36 83e0 f0b9 b5bf
00000100: 0000 00a0 2321 b73f 4929 7cee 6603 ab3f
00000110: 0000 0060 22bc b2bf 2f33 ff08 8c92 b5bf
00000120: b827 6910 8c53 a73f 019f 5534 3f20 903f
00000130: 0000 0040 bba8 a3bf 0000 0060 6a02 b83f
00000140: 0000 0060 fe1b aabf f57a 14df 1078 f5bf
00000150: ac45 367b 3c00 c13f 0000 0000 4528 8c3f
00000160: 58c0 fed7 facb ab3f fa81 278e 3e79 bebf
00000170: ae4e 22e0 0e75 ab3f c2d4 8809 ab16 babf
00000180: 0000 0000 77c7 96bf 0000 0040 604d b4bf
00000190: 7a7a 55b7 6756 943f 0000 0000 ac09 7bbf
000001a0: 0000 0000 5cbe 79bf d9e4 3aeb 2aed 1dc0
000001b0: 4bc5 7621 109c 9dbf 9332 ca2d 8850 97bf
000001c0: df00 9465 f28d adbf 5e40 75f0 f798 fbbf
000001d0: 16e5 a77f 818f c53f c8dd 1468 d7e9 a63f
000001e0: 1a11 2d9c 36b1 a83f b759 c626 6a5b bcbf
000001f0: 0000 0000 64b3 afbf fd9a b115 132c bcbf
00000200: 0d7e a18c 1818 b83f 681a ef1b 8655 a9bf
00000210: c19c 6292 e902 a73f 785e 67c9 e8c2 abbf
00000220: 0000 0000 cb87 92bf 0000 0040 4739 b9bf
00000230: bc48 fbfd 0e45 d3bf 0000 0040 2de4 aabf
00000240: 0000 0080 50e8 9a3f d1b6 2ebc 1560 f1bf
00000250: 64b3 bf56 8df8 a23f f3ba 9d3e b315 ae3f
00000260: 6a74 3e4c 9bb3 abbf 5e12 d04c 1b8f e0bf
00000270: 1758 5574 9224 afbf 0000 00a0 95ab b73f
00000280: 0000 00a0 8043 b53f 6f85 d341 8a0e c5bf
00000290: 1757 b66f 6a16 b3bf efec 566b 192b bfbf
000002a0: 48bf 6078 e5ff c9bf fafd e76b be35 b4bf
000002b0: 0c03 4e16 a323 a9bf 0000 0020 2c68 b73f
000002c0: eff8 3c64 d1c1 9f3f 0000 0040 b0d8 a03f
000002d0: 0000 0000 7d98 b4bf 0000 00c0 a46b a03f
000002e0: 0000 0080 7c3d 9e3f 301d 6311 74e2 b4bf
000002f0: 21b9 8ad8 c0af ca3f 2208 8ea5 def3 9e3f
00000300: 7e2b 3224 a340 b7bf 5571 0169 4c2f 8fbf
00000310: b073 651b cfb5 96bf 87cc 7a69 85a5 87bf
00000320: 0000 0000 faee 7a3f e5aa 03b0 75b8 b1bf
00000330: 9416 2466 a982 ac3f 94f2 8d82 464a c03f
00000340: 951b b599 fbc3 b7bf 0000 0000 6e30 8c3f
00000350: 01aa 2b2e c781 93bf a67d 5568 65fa e23f
00000360: 0000 0020 611f b33f 0000 00c0 302d b2bf
00000370: 1f98 39bb f91a aebf 5094 fb27 e5a9 d9bf
00000380: 0000 0040 221c ab3f 6d55 cf7c 3c12 8a3f
00000390: 6233 f777 f14b aa3f 0000 00c0 5d0e a23f
000003a0: 0000 0040 b189 a13f 1ebe 5fa8 d648 b1bf
000003b0: 3da3 6936 7002 7c3f c89d 9f97 e83f ebbf
000003c0: 0000 0020 e9ab b73f 8148 3aec b341 643f
000003d0: d7da d865 0df6 933f 67dd 1a97 2499 aabf
000003e0: 4ede de45 4808 babf cd9c 33fc 9671 ba3f
000003f0: a82c dd91 a28e d2bf f4f1 27c1 aa2a babf
00000400: cccb 5a0b 48e9 bdbf e1e1 b880 7c3d 973f
00000410: 2e5e ca35 d0b6 b33f d765 b6e9 2f85 b4bf
00000420: 0000 0020 9737 b83f 30cc dd30 12f2 b0bf
00000430: 0000 0060 9158 b4bf 875b d188 b1a9 bdbf
00000440: fca0 372e a5a5 8cbf dbd4 37c9 ce40 93bf
00000450: 0000 00a0 11e4 b23f e53c 23cf 3c48 b23f
00000460: 0000 00c0 3060 aa3f 0f53 20e7 03c7 a7bf
00000470: d01d 0fb9 4208 8c3f 0000 00a0 1088 b63f
00000480: c7fd 2e4e 12b0 acbf e4bf 44bb fdb1 c0bf
00000490: 5408 83db 93c7 8abf 6d6c 9083 422e b5bf
000004a0: 0000 00a0 6e12 b6bf 0000 00a0 d6f1 b13f
000004b0: 7d08 0ce1 1474 b5bf 0000 0020 2cf1 b23f
000004c0: 0000 0020 4643 b23f 85a4 bbca 8ccf f0bf
000004d0: 1ce7 4dd3 2a48 a5bf 993f e1ea 571e a8bf
000004e0: 112b 6cc9 514d 8b3f 7cc7 dc93 6a32 dabf
000004f0: 118d 31fe 2905 cbbf eb72 6bdc 4c47 b03f
00000500: 20ad 1e05 8b15 a0bf 8e6f 22ca 4611 68bf
00000510: 0000 0080 c5f5 93bf 0ba8 4502 047e b43f
00000520: 2852 5c4c 77db c93f 4a2c 90d0 cbce 893f
00000530: 13dd cee3 3f31 b93f ba3b 6905 3b43 b73f
00000540: 0000 0000 1dfa b5bf 0000 00e0 4067 a6bf
00000550: 88c2 4a62 75a4 9abf 0000 00a0 a7ca a7bf
00000560: 0000 0000 14b2 70bf 3beb 5b45 3ace fdbf
00000570: 6833 76c4 ea4f b2bf b423 e435 e3c6 77bf
00000580: e2d8 4bc8 ec96 b9bf 12e9 2629 c897 d4bf
00000590: f99f 0b39 6a13 b5bf 0000 0020 8200 b93f
000005a0: 0000 0000 cad3 773f d93e a4bb 576a b2bf
000005b0: e81c e02d 3159 b03f 1af1 27a8 f542 b43f
000005c0: 074e 04f1 4881 c23f a841 dcf2 db24 9bbf
000005d0: 6cff 4ccc 712b 933f 0000 0000 7e50 8ebf
000005e0: 6984 1bf2 1e47 a9bf 0000 0020 dc2c b53f
000005f0: 0000 00c0 0dca a03f 0000 0000 3abc 89bf
00000600: fb00 2bb2 13ff a4bf d7a5 2c26 8781 733f
00000610: 4a86 e941 2413 da3f ca81 0b2b a0c1 a03f
00000620: a453 2e55 81c3 a13f 38e4 0a43 dd42 c1bf
00000630: c705 535b e051 883f 0855 ce3f 43b6 b0bf
00000640: 0000 0060 62be acbf 9e87 57d0 aa41 c03f
00000650: d95e fdc3 3390 a0bf d5e0 f872 31e9 ab3f
00000660: 5a33 3f92 342d c53f 0000 0000 b32e 973f
00000670: 0502 c6aa 15f9 a73f e8b8 ae84 c310 db3f
00000680: 0000 0000 d327 8fbf 0000 0040 303e af3f
00000690: e26a fc0c e590 abbf f2a3 2578 54c5 bc3f
000006a0: 0000 0080 3d3d 933f c3b6 4738 a60c b43f
000006b0: 486d 7cdf 4e73 b33f 0000 0040 aa33 a93f
000006c0: 0000 0040 569c b6bf c6ba bb13 4269 a8bf
000006d0: 3585 d135 36c8 b23f 9d93 010b 1301 e0bf
000006e0: 0000 0000 777c 9ebf 4ea5 7675 b834 bf3f
000006f0: 7f04 fe93 99fb be3f 91b3 cc22 844e 81bf
00000700: d53b b96d 8637 aebf c889 dbb8 c1f3 a4bf
00000710: 68da ff70 2756 d23f ea6e 76d3 00b4 cc3f
00000720: 2d48 3a64 697c 6abf e723 b08e 7689 9abf
00000730: 4d13 2a6a 57a3 a1bf 889b 9cdf cb1b a4bf
00000740: 0000 00a0 2766 a9bf 5c8b 8f1c 6727 b03f
00000750: 0000 0020 2ab8 b63f 2921 af42 e779 913f
00000760: 7025 7e7f eea3 aebf 59e5 3207 d302 95bf
00000770: 0000 0040 2c8f ac3f 09a6 0152 bb35 a3bf
00000780: 0000 0080 1686 97bf b5fa 22a8 c1a8 a73f
00000790: c8ed e047 b446 d23f 0000 00e0 41bd b6bf
000007a0: 0ba3 24cd 5c25 873f 8caf b732 44c9 b53f
000007b0: 17b0 1e9f fc9c a2bf 11af 9326 11b9 a8bf
000007c0: 0000 00a0 64a9 b4bf 0000 0000 7807 62bf
000007d0: 8d17 1d0f 7658 bb3f 0000 00e0 b94f b93f
000007e0: 0000 0000 08f9 6b3f d936 640e 1b3d e83f
000007f0: 5e17 72cd d525 b13f 6ea9 edac 2576 ba3f

hidden_layer.bias f8 [50]
0.4473774755499313 -0.008503933738937696 -0.19994855462971117 -0.10811206134622375 -0.18262981115180288 -0.03545651895939509 -0.0037216835301545894 -0.0257161658932403
-0.16247764982753957 -0.04778842366389405 -0.16007689089092825 -0.0275744052057093 -0.010384904983532998 -0.0634524319375464 -0.13716538983955148 -0.30216098104334266
-0.3435776700706925 -0.0014386631518617332 -0.2641021570443721 -0.06284257642274127 -0.20101931686135727 -0.027566093650934147 -0.0692867785692215 -0.2678319926224187
0.38702081820206236 -0.07523731033004731 -0.126893618398065 0.339174608481984 0.4621586990180636 -0.16878857298606184 -0.04293009030021861 -0.20485808081067974
-0.12922750566971997 -0.3148481280823738 -0.004702188803959428 -0.27915651467672464 -0.26977355122338603 -0.0067592866464075895 0.22304406148310693 0.8078031292467136
-0.11263024506672538 -0.08412604620300651 -0.13671769044420964 0.26102697484977716 -0.04199727382451093 -0.13625333248129068 -0.6561769842332156 -0.07511438939308754
-0.04750838977912263 0.44694635167442914
00000000: 3f0e 9d22 d5a1 dc3f 9963 5eaa 826a 81bf
00000010: a42f 820b ea97 c9bf 5801 c967 3bad bbbf
00000020: 9cf8 15e5 6960 c7bf 55a1 b85a 5b27 a2bf
00000030: 3ed6 89a1 ef7c 6ebf b8bc f5ad 5655 9abf
00000040: 698c 2b50 11cc c4bf 1413 8769 b977 a8bf
00000050: 2067 9c49 667d c4bf debc 4202 773c 9cbf
00000060: 9cf2 355a ae44 85bf 5cff 0528 6b3e b0bf
00000070: e781 c0af a28e c1bf f656 ed02 9b56 d3bf
00000080: 68ba 2532 2dfd d5bf a930 fbcb 3092 57bf
00000090: aac0 d3bb 0ce7 d0bf b834 887a 7316 b0bf
000000a0: 4253 e43f 00bb c9bf ce41 d63a 493a 9cbf
000000b0: 0000 0040 c7bc b1bf f9b0 48cc 2824 d1bf
000000c0: 2223 43f7 f2c4 d83f 777a 4e9b c042 b3bf
000000d0: 1c9f 8bd2 0c3e c0bf 1414 c46a 09b5 d53f
000000e0: 220c 7614 0294 dd3f 4ff2 742c dd9a c5bf
000000f0: c920 b5cb eefa a5bf e29b b322 ca38 cabf
00000100: 4c2c 4ce3 868a c0bf f384 54c3 7826 d4bf
00000110: 6639 1f32 9a42 73bf be1e 4049 b3dd d1bf
00000120: 6322 f548 f843 d1bf 9723 7331 a0af 7bbf
00000130: d387 d132 b58c cc3f 3813 b7f2 85d9 e93f
00000140: 0120 1af3 55d5 bcbf d406 2fd9 4889 b5bf
00000150: 4b0b 9f1c f77f c1bf 81a1 167c aab4 d03f
00000160: 84e2 31ab aa80 a5bf 4834 7dcb bf70 c1bf
00000170: 1b6d f5df 66ff e4bf 76fe e655 b23a b3bf
00000180: 9f1e c608 0553 a8bf 2786 e0de c49a dc3f

hidden_layer1.weight f8 [25, 50]
0.022220320555413637 0.0024705582298403662 -0.15585697153867697 -0.17108451489158444 -0.11431212961753028 0.026037588715553284 -0.0410810379647632 -0.020475544035434723
-0.028997579825447747 -0.10414110819914828 0.09876191419984832 -0.10895088132868706 0.0612718343885928 -0.10734204202890396 -0.044019029712535726 0.02748326753881391
0.05212320960520722 0.10903892901909694 -0.10032382902359663 -0.002462252974510193 -0.027665010597895428 -0.039747096598148346 -0.012779265642166138 -0.15042423850030084
-0.09461307127059865 -0.05496949481610978 -0.10979612432471926 0.04624281105866992 -0.08177471905946732 0.0953556913002043 -0.12325952207893075 -0.1447492918660703
0.1002818440891174 0.0383572032956661 -0.07817062637632759 0.017940348208808837 -0.10196417204849739 0.13565733661120152 0.014685526490211487 -0.03488165556729454
0.056181317868053755 0.1296028047800064 0.014421326225791137 -0.16963469218227836 0.04029933614237343 -0.09498637914657593 -0.005343245603175123 -0.025268614184564105
0.13544173538684845 0.0017488747835159302 -0.018774729371910763 -0.10089748401427273 -0.26584314372066037 -0.1779360549369526 -0.09177354238669924 -0.10623331367969513
-0.022750549018383026 -0.055764853954315186 -0.1403480021910536 -0.15377534338319218 -0.045865784232430505 0.007920145988464355 -0.05523304701295033 -0.11933842494212227
0.1212930828332901 -0.16267019775537964 0.09789868447654707 0.04216807477537407 -0.2469799566442064 0.13597901165485382 -0.2586192132352151 -0.12942171096801758
0.08873599767684937 -0.19262845772020679 -0.10012608519263924 0.061128169298172 -0.0023818811785427797 -0.020164789250772936 0.015315724343538131 0.03905382752418518
-0.11589144915342331 -0.017213346923069896 -0.040826305747032166 -0.11976498064852403 -0.020645876401850758 -0.24025217119384612 -0.056404158214632835 0.13276569545269012
0.06744349425479014 0.07501795721687082 -0.1009741723537445 -0.030757214067438334 -0.08437551314416437 -0.11571289753007097 0.07975095510482788 0.11136530339717865
-0.23188132519721857 -0.04887741804122925 0.05652867078482916 0.02867085611710966 0.12284916446901147 0.3195433529903165 0.30174174145987026 0.11492203898217848
0.11133039710923334 0.20196738036497164 0.10102723952843798 0.13773693144321442 -0.0447137119970861 0.06242638870815516 0.34438176313755053 -0.03797465579019682
0.12530828035143426 0.47848487995677597 0.13495229184627533 0.36828601559443147 -1.2176258662529003 0.07783468705511977 0.3415964284649213 -0.05005047418990894
0.17244456360176255 0.0546671288618066 0.10033774375915527 -0.08924019194453746 0.24366242644291417 0.043349074068834974 0.06877756741013064 -0.2185763701416261
-0.6872257353556586 -0.06267795781289116 -0.10887845646154001 0.01663545932954491 0.006019556281059607 -0.059342391853626 -0.015286317214720938 0.4032605305069451
0.4718319910157901 0.020966501634263498 -0.04738284696101341 -0.2580649058182804 0.028808804968247705 0.535560588954603 0.0865079492527903 0.09915382549357607
-0.07435621898629091 -0.06724239446669855 -1.3840443161389118 -0.04991854409061108 -0.11891235883188876 -0.5930382271810589 2.021503362999856 0.4235803892651081
0.25060865153725154 0.18222642559225696 0.07432260332428965 -0.013265944409610517 -0.07970412820577621 0.07642252743244171 -0.004582325081774683 -0.03819619227608077
0.6431900870848113 -0.07594279731397627 -0.11763701529174367 0.37923406066270776 0.09270380944087565 0.8280987126079399 0.09669900906723057 -0.0493362633442474
0.21306775247617954 -0.14921792142922996 -0.2423686088052122 0.02045032365689911 -0.05046871304512024 -0.23258156967970053 0.852175995535154 0.09161843359470367
0.11386150203680119 -0.3926690188670027 -0.22998277209890053 0.04793839849665746 -0.04112397224597965 0.11695087097514476 0.042577576589259106 -0.02041119328793745
-0.0038914807066029685 -0.13227835661974702 0.22511391165243988 0.11888568630131259 -0.103727665728364 -1.4621863684664278 -0.03130149096250534 1.051173649375029
0.15311292481485256 1.771967423673953 0.028167694807052612 0.009595887836789612 -0.6972598872014657 -0.09063079953193665 0.17672657768432806 -0.6123106823702817
-0.10987535119056702 -0.12984275817871094 -0.16378279305458612 -0.15050532996929564 0.05903833248176978 0.004396721720695496 -0.0073189884424209595 -0.08649510145187378
-0.08829552680253983 -0.10907091629182274 0.00999465758668615 -0.04855699837207794 -0.05968032777309418 -0.01652402549807025 -0.03657021373510361 0.07184641847549282
0.11829973757266998 -0.02218778431415558 -0.038998087893645755 0.09289157390594482 -0.036608606387849275 0.0003698766231536865 0.10220350325107574 0.01590834401228302
0.11201949417591095 0.09456239640712738 0.039504615885559 0.015575453639030457 0.10038232803344727 -0.125821053981781 0.016509518027305603 -0.019532345602428534
0.07134586572647095 -0.16177457173488366 -0.16392843732151482 -0.04369999286892596 0.040829847223539724 -0.14021244645118713 0.11970601975917816 -0.18402245697915742
-0.1109682247042656 -0.1285981819694652 0.05030795931816101 0.014844506978988647 0.025786489248275757 0.04555504024028778 -0.002544911141082764 0.13353516161441803
0.026561066508293152 -0.036447182297706604 0.07028397637018975 -0.5576427473257127 0.24368559921197974 0.1209815614483275 0.0784115718428803 -0.07140973221476454
00000000: 7559 5e78 ecc0 963f 5fd4 99d9 223d 643f
00000010: 3d5d ce09 1ff3 c3bf 4edb 27ee 18e6 c5bf
00000020: d34f 3e4a 8f43 bdbf 0000 0000 99a9 9a3f
00000030: 98ba 16e5 9208 a5bf 0000 0080 8af7 94bf
00000040: 2cc5 0da4 8ab1 9dbf 2b71 e2dd fda8 babf
00000050: 1d26 94f7 7548 b93f a355 2d78 34e4 bbbf
00000060: a9d8 ba99 055f af3f 0000 00a0 c47a bbbf
00000070: 56b3 088a a989 a6bf 7ed1 10dd 9224 9c3f
00000080: b0dc 3bb1 e4af aa3f 2fbd 20aa f9e9 bb3f
00000090: b274 aa8c d2ae b9bf 0000 0000 b82b 64bf
000000a0: abba 0b6f 3754 9cbf 0000 0040 bb59 a4bf
000000b0: 0000 0000 042c 8abf 2c37 71f8 1941 c3bf
000000c0: 649f e1ee 8f38 b8bf 0d92 062d f624 acbf
000000d0: a5c4 334b 991b bcbf c31c 5842 23ad a73f
000000e0: 0000 0020 30ef b4bf 8231 9f07 3b69 b83f
000000f0: 9fe5 3fa0 ef8d bfbf 0b8b 5711 2587 c2bf
00000100: f5cd be28 12ac b93f 071b 712b 8ea3 a33f
00000110: 334e cb7b fd02 b4bf 1bbe 5763 f45e 923f
00000120: 20e0 4ff0 521a babf c991 1a38 385d c13f
00000130: 0000 0000 7213 8e3f b6a2 c823 02dc a1bf
00000140: c968 c735 ccc3 ac3f 0000 0020 d396 c03f
00000150: aaaa 09a4 ed88 8d3f 0d4f 98ef 96b6 c5bf
00000160: eb62 9055 1da2 a43f 0000 0000 0751 b8bf
00000170: 8610 ec91 cce2 75bf efda 26fe 03e0 99bf
00000180: 0000 00a0 2756 c13f 0000 0000 50a7 5c3f
00000190: ce0d 93c2 ae39 93bf 3409 17e2 6ad4 b9bf
000001a0: 1d59 09f6 9203 d1bf 5fe2 5dd0 9bc6 c6bf
000001b0: 925e 308b 787e b7bf 0000 0040 1b32 bbbf
000001c0: 0000 0080 eb4b 97bf 0000 0000 368d acbf
000001d0: f418 bc5f ecf6 c1bf 9388 6113 e9ae c3bf
000001e0: b33e 9156 b87b a7bf 0000 0000 7038 803f
000001f0: 8679 2885 8147 acbf 3c56 4888 f68c bebf
00000200: 0000 0040 100d bf3f a554 b285 60d2 c4bf
00000210: f2ef 2560 e30f b93f 3ce7 30cc 0d97 a53f
00000220: 6af5 460a 0a9d cfbf 0000 00a0 c267 c13f
00000230: 9699 bd99 378d d0bf 0000 0000 e490 c0bf
00000240: 0000 0000 67b7 b63f 65f6 179f 0ca8 c8bf
00000250: 4aff 60f5 dca1 b9bf 0000 0000 314c af3f
00000260: 1f3c 79b8 2a83 63bf 6582 7319 14a6 94bf
00000270: c841 5cb9 d95d 8f3f 0000 0000 ddfe a33f
00000280: 0000 00e0 0fab bdbf 2a6e 5b28 60a0 91bf
00000290: 0000 0080 2fe7 a4bf 786b 17f3 eaa8 bebf
000002a0: 19d8 c54f 3124 95bf 3008 0949 95c0 cebf
000002b0: decf c77d 01e1 acbf 0000 0060 77fe c03f
000002c0: 51fc 2612 fa43 b13f b4f3 db78 6034 b33f
000002d0: 0000 0080 71d9 b9bf 7793 24b2 d17e 9fbf
000002e0: 5193 8935 a299 b5bf 40f7 9d46 5c9f bdbf
000002f0: 0000 0000 8f6a b43f 0000 00c0 6f82 bc3f
00000300: 9339 238a 49ae cdbf 0000 0000 7606 a9bf
00000310: 4248 9d70 53f1 ac3f 0b38 7c95 e45b 9d3f
00000320: 8d3e bcf7 0a73 bf3f 91d8 aff6 6573 d43f
00000330: 7120 da97 bc4f d33f caa1 04df 876b bd3f
00000340: 8a85 a21e 2680 bc3f 4c5f c32e 11da c93f
00000350: f2a0 c7d1 ebdc b93f 0000 0020 5da1 c13f
00000360: 94a5 6b35 b7e4 a6bf aa5c d103 5af6 af3f
00000370: 2cef 80ce 590a d63f a839 6401 6a71 a3bf
00000380: 2882 030b 1a0a c03f a3de c20b 7f9f de3f
00000390: 0000 00e0 1d46 c13f b957 2382 ff91 d73f
000003a0: 371e a542 657b f3bf 0969 655b f9ec b33f
000003b0: bffb 2b44 b7dc d53f d103 973b 37a0 a9bf
000003c0: ad72 85d8 a912 c63f e35e 4175 54fd ab3f
000003d0: 0000 0000 bcaf b93f 27fb e3f9 71d8 b6bf
000003e0: 990c 6b94 5430 cf3f a703 e08e d931 a63f
000003f0: 1896 b91a 689b b13f f7e4 b77c 4ffa cbbf
00000400: ae4e 4ad3 c0fd e5bf 0587 fca2 a90b b0bf
00000410: 26c4 bd61 75df bbbf e0ea 18c7 e208 913f
00000420: c63b d155 f6a7 783f 0034 8e40 2062 aebf
00000430: 35aa 1bc4 6e4e 8fbf 4ae0 9241 05cf d93f
00000440: fea3 a7ce 7e32 de3f ffa0 521b 3e78 953f
00000450: a787 2d84 9042 a8bf 8707 afaa 2284 d0bf
00000460: 6aad b32c 0e80 9d3f c3c4 d2f5 4f23 e13f
00000470: c37f e28c 6225 b63f c6a8 c425 2562 b93f
00000480: ace2 cc58 0209 b3bf b8a2 232d cc36 b1bf
00000490: 4080 20a7 0b25 f6bf 388d aa64 ec8e a9bf
000004a0: 0fef 4554 0a71 bebf a9a7 e04d 2bfa e2bf
000004b0: 0ab5 86f4 092c 0040 bab7 c7eb f01b db3f
000004c0: 329e 9cde f809 d03f 4f5f 310d 3253 c73f
000004d0: c1a3 a15e ce06 b33f d25f 1eeb 2c2b 8bbf
000004e0: 0000 0060 7d67 b4bf 0000 0040 6d90 b33f
000004f0: f192 da85 eac4 72bf 26a3 5089 738e a3bf
00000500: 4280 a460 0395 e43f 8a8d d4b6 fc70 b3bf
00000510: a222 7a9d 751d bebf cbd6 04f0 5e45 d83f
00000520: 915f c3d5 6fbb b73f 8358 10df c87f ea3f
00000530: 3dd6 7f29 44c1 b83f a809 244b 9a42 a9bf
00000540: 3ad4 5bda cd45 cb3f 8000 42a6 9219 c3bf
00000550: 999c 3240 ef05 cfbf 382c 32fd edf0 943f
00000560: 0000 0000 09d7 a9bf c39c b69d 3bc5 cdbf
00000570: b24f e897 0645 eb3f 0000 0040 4e74 b73f
00000580: ed80 8503 0726 bd3f 6eea 8b3c 7d21 d9bf
00000590: 1173 6752 1370 cdbf 9c11 88bb 618b a83f
000005a0: 9295 c187 330e a5bf ceb3 1306 7ef0 bd3f
000005b0: c2d3 fc65 bacc a53f 917b 93fe abe6 94bf
000005c0: 35a1 c5cb 06e1 6fbf 9241 d347 7fee c0bf
000005d0: 98ff 355c 88d0 cc3f 516c a0d6 4a6f be3f
000005e0: f865 fe73 e58d babf 6786 9388 1d65 f7bf
000005f0: 0000 00c0 bf06 a0bf 39b9 e775 9bd1 f03f
00000600: 865c 564e 3499 c33f b11c 6483 fa59 fc3f
00000610: 0000 0000 fed7 9c3f 6313 7b43 02a7 833f
00000620: 66f9 8af7 f34f e6bf 0000 0080 9433 b7bf
00000630: 177d befb f99e c63f 9eb2 7892 0c98 e3bf
00000640: 0000 0080 ca20 bcbf 0000 0000 b09e c0bf
00000650: e992 e8a5 d5f6 c4bf 8bc0 0b37 c243 c3bf
00000660: 3b6c 70b6 453a ae3f 0000 0000 4c02 723f
00000670: 0000 0000 84fa 7dbf 0000 0000 8b24 b6bf
00000680: 0000 0020 899a b6bf b70a 6b52 12ec bbbf
00000690: b99b c13b 1478 843f 0000 0080 76dc a8bf
000006a0: 0000 0080 6b8e aebf 702e 7394 aceb 90bf
000006b0: 0000 00c0 54b9 a2bf 63dd afe1 8664 b23f
000006c0: 0000 0040 e448 be3f 0000 0000 65b8 96bf
000006d0: 1c30 38b0 8ef7 a3bf 0000 0000 bec7 b73f
000006e0: e53a 60fe 5cbe a2bf 0000 0000 803d 383f
000006f0: 0000 0040 022a ba3f dea9 10e5 464a 903f
00000700: 0000 0040 4fad bc3f 0000 00c0 3d35 b83f
00000710: 43fe 89f2 f239 a43f 0000 0000 06e6 8f3f
00000720: 0000 0000 a8b2 b93f 0000 0080 e71a c0bf
00000730: 0000 0000 dfe7 903f 3970 4e86 4900 94bf
00000740: 0000 0000 b943 b23f 5d7e 7677 07b5 c4bf
00000750: cf13 9766 9bfb c4bf 8939 6a70 d85f a6bf
00000760: f932 0d55 a6e7 a43f 0000 0040 7bf2 c1bf
00000770: 0000 00c0 0da5 be3f 043f 3a41 0c8e c7bf
00000780: 0000 00e0 6968 bcbf f623 f1bc e775 c0bf
00000790: 0000 0000 f7c1 a93f 0000 0000 cc66 8e3f
000007a0: 0000 0000 c667 9a3f 0000 0080 fd52 a73f
000007b0: b8de e8c3 10d9 64bf 0000 0020 ae17 c13f
000007c0: 0000 0000 d332 9b3f 0000 0080 34a9 a2bf
000007d0: 755b f173 21fe b13f 67b2 539a 35d8 e1bf
000007e0: 2091 8ff7 1631 cf3f c8ee d6c9 a5f8 be3f
000007f0: aa70 b1e0 c712 b43f 0881 7a80 e847 b2bf

hidden_layer1.bias f8 [25]
-0.01363378372879814 -0.22862780399929475 -0.15340877939660388 0.020586016638532673 -0.1193357257914821 0.35496579752166685 0.07336899881093437 -0.3690452185445767
-0.1590234845931857 0.5071360193242076 0.04411869207029196 -0.12589415907859802 -0.20773164798426716 -0.220645566208455 -0.011908352395485733 -0.06938868254838321
-0.37315614052452206 0.08987274404633502 0.26685693781005243 0.1878080894585704 -0.018302507866349432 -0.12780848439006182 0.29721892020356316 0.37817145010679665
-0.10658775560338926
00000000: 9e2c e379 07ec 8bbf f50e 9106 ad43 cdbf
00000010: 9fbe 361d e6a2 c3bf a5a0 de30 8014 953f
00000020: a8d2 843f c98c bebf a776 e376 c2b7 d63f
00000030: e6e7 6e8a 4fc8 b23f 6c39 19d6 6f9e d7bf
00000040: 27d5 cfac e15a c4bf 04e0 3351 753a e03f
00000050: 111c 2ba7 b996 a63f 0000 00c0 4c1d c0bf
00000060: e5e2 375d f396 cabf 30b5 6f29 1d3e ccbf
00000070: 0ded b300 6863 88bf 4401 42ea 74c3 b1bf
00000080: 88ae f64a cae1 d7bf e614 7b70 e601 b73f
00000090: 5fb6 261f 2f14 d13f f30b 1371 180a c83f
000000a0: 380d e282 e4bd 92bf 72a6 4d46 075c c0bf
000000b0: 11b6 8181 a205 d33f 6655 9f06 f633 d83f
000000c0: 1679 78cc 5549 bbbf
